compareAlgo/MFCC/model_aco.pth (torch, 805065 bytes, 10 tensors)

network.0.weight f4 [128, 20]
000000 4c 6b c4 bd 86 45 ad 3d 46 b7 43 3e 1f b2 e8 3d
       -0.09590778 0.08460526 0.19112882 0.11362099
000010 de 7f 23 3d af 47 d1 bc ca 76 4d be b3 da af 3d
       0.039916866 -0.025546877 -0.20064846 0.085866354
000020 2d 7b be 3d ff a6 1e be 04 c3 f5 3d e5 fe db bc
       0.09300838 -0.15493391 0.12000087 -0.026854942
000030 ab 16 66 bd 69 28 33 be 8d 24 9b bd c7 c6 f0 3b
       -0.05617396 -0.17495884 -0.07575331 0.007347915
000040 a3 1a b7 bc 50 18 39 3e 9b cd 55 bd 31 49 30 3d
       -0.022351569 0.1807568 -0.052198034 0.04303855
000050 e7 52 c0 bd a5 05 ec 3d 18 bf ac 3d e6 e4 ad 3d
       -0.09390812 0.11524514 0.08434886 0.084909245
000060 be 2c d3 3c 38 a9 ba 3b 20 0f 10 3e cf 4d bc bd
       0.02577817 0.005696442 0.1406827 -0.09194528
000070 59 2e 18 3e af 84 28 3c 49 65 ba bd 91 fc 07 3e
       0.1486143 0.0102855405 -0.0910135 0.1327994
000080 2d 06 0d 3e c3 63 e8 3c 4e 20 07 3c ff c7 0d bd
       0.13771887 0.028367883 0.008247448 -0.03461456
000090 3e 81 74 bd c4 2a 82 3d 49 b7 88 3d 45 84 78 3c
       -0.059693567 0.06355813 0.06675584 0.015168254
0000a0 ee ac 25 bd 40 98 37 3e 2b d8 03 3d d7 e2 85 bd
       -0.04044812 0.17929173 0.032188576 -0.06537407
0000b0 d5 11 0a bd ea b2 4a be 11 7c df 3c ec 25 c7 3d
       -0.033708412 -0.19794813 0.02728084 0.0972403
0000c0 05 c1 e5 bd 03 fa 3a 3e 07 e8 b3 3c 5b fc b8 bd
       -0.11218456 0.18259434 0.021961225 -0.09032508
0000d0 6b af 78 bd e9 e1 63 3e c2 4b 58 be 33 a1 61 3e
       -0.060714167 0.22254147 -0.2112265 0.22034149
0000e0 dd 7d f0 3a 79 fb 23 be a3 23 d5 3d 4a 46 7e bc
       0.0018348057 -0.16013898 0.10407188 -0.015519688
0000f0 d5 bb 1f bd d5 3d dd bc 3c cd 31 be b4 8d 11 bb
       -0.03899749 -0.027007023 -0.17363447 -0.0022209706
000100 21 fd 2e be f7 46 4e be 09 94 84 bd 76 dc a9 3d
       -0.17088749 -0.20144258 -0.06473548 0.08294003
000110 3d d7 80 3d fc 3e 4e be d9 d1 c9 bb b5 74 13 3e
       0.062910534 -0.20141214 -0.006159049 0.14399989
000120 1f cf 17 3e f4 bb a0 3d e1 65 33 be 39 f1 26 3d
       0.14825104 0.07848349 -0.17519332 0.04075739
000130 37 f1 d4 3d 8c d6 b5 bd 6e c9 b6 3d 28 25 dd 3d
       0.103975706 -0.08878812 0.089251384 0.107981026
000140 d4 b5 1e bd 00 3f 47 3d a6 bc 77 be 68 c3 a9 bd
       -0.038747624 0.048644066 -0.24193057 -0.08289224
000150 e4 9e f7 bd 58 36 43 be 07 f3 5c 3e 2e c3 27 bd
       -0.12090853 -0.19063699 0.21577083 -0.040957622
000160 8c 12 43 3b 1d a6 41 be e9 b1 23 3d e9 4c dd b8
       0.0029765693 -0.18911023 0.03996459 -0.00010552427
000170 e8 87 84 bd b2 03 22 bd 8a c1 3f be d4 a6 39 be
       -0.064712346 -0.039554305 -0.18726173 -0.18130046
000180 9b 14 59 be 42 9e 82 bd d1 32 27 3c 1a 01 31 be
       -0.21199267 -0.063778415 0.010204987 -0.17285576
000190 81 26 4f bd 95 63 46 be e7 06 10 be 0f 0c 55 3e
       -0.05057383 -0.19373925 -0.14065133 0.20805381
0001a0 0f 7e 4a 3e e7 22 84 bd 59 3e fd 3d 80 13 0c be
       0.1977465 -0.064519696 0.123654075 -0.13679314
0001b0 6a 34 19 3e 71 d4 7c bc 7d 42 da bd af 71 15 be
       0.149614 -0.015431509 -0.10657213 -0.14594148
0001c0 70 96 e0 3d 69 1a 44 39 29 29 40 3d 15 a2 a5 3d
       0.10966194 0.00018701855 0.046914253 0.08087555
0001d0 df d4 51 be 05 c7 2d 3c 84 d7 19 3e a9 c4 1f be
       -0.2049136 0.010606532 0.15023619 -0.15602364
0001e0 89 85 a7 bd 71 29 fe bc da 15 86 bd 18 72 be bd
       -0.08179767 -0.03102562 -0.065471366 -0.092991054
0001f0 1a 05 1d be 74 9c c6 bd 11 2b 0d 3e 81 e6 46 3e
       -0.15333977 -0.0969781 0.1378596 0.19423868
000200 e4 9c 66 bd fb 3a ab 3d 64 8e 5f be 0e 3a c8 bc
       -0.056301966 0.08360859 -0.21831661 -0.024441745
000210 e5 2b 50 be 1b 14 02 3e b8 e8 59 3e 2f aa ef 3d
       -0.20329244 0.12702982 0.21280181 0.11702382
000220 e5 a5 0c be 7a af 56 bd 66 24 55 3e a5 1b 16 be
       -0.13735159 -0.05241344 0.20814666 -0.14658983
000230 c4 5f 4a be a8 05 fa bc 4a 59 2f bd fe 58 96 3d
       -0.19763094 -0.030520275 -0.042809762 0.07341193
000240 c1 e6 94 bc a8 6d e9 bd 2a da 1c 3e fe c3 5b be
       -0.018176438 -0.113978684 0.15317598 -0.21461484
000250 46 11 46 3e 01 b8 ff 3d 6a 48 46 be 58 90 3b bd
       0.19342527 0.12486268 -0.19363561 -0.045791954
000260 a7 7b e3 3d 26 7b f2 3d 91 7a 3d 3e f8 08 b5 bb
       0.11107569 0.11839895 0.18503787 -0.005524751
000270 09 1f 38 be e5 09 24 3e e8 39 1d 3e 53 8b d7 bd
       -0.17980589 0.160194 0.1535412 -0.10524621
000280 83 7c 93 bc 15 26 dc bb 16 04 2b bc 4c 12 b9 3d
       -0.018003708 -0.006718407 -0.010437986 0.09036693
000290 3b 08 a0 3c 3c a1 3c be 70 27 d6 3d 85 71 00 3e
       0.019535175 -0.18420881 0.10456741 0.12543304
0002a0 5f 3a 2a be 12 b9 3c 3e 07 2b 5b bd d1 83 61 3e
       -0.1662383 0.18429974 -0.05350783 0.2202294
0002b0 d0 1f 1e 3e 2e 21 c8 bc 3c 9d 23 3e 4e f9 04 3e
       0.15441823 -0.024429884 0.15977949 0.12985727
0002c0 bd 36 dc 3c a1 53 27 bd a5 13 06 bd 75 c0 15 3e
       0.02688157 -0.04085124 -0.03273358 0.14624198
0002d0 6b 9c 20 be 2e 7f e0 bd 36 14 47 bd 5c 3a eb 3d
       -0.15684669 -0.109617576 -0.04860326 0.114857405
0002e0 f9 1a ed bd 24 48 01 3e 7b ef 4a 3e 27 c8 bd 3d
       -0.1157741 0.12625176 0.19817917 0.09266692
0002f0 82 6d 45 3e 8d 41 c3 3d e9 97 35 3e 21 26 36 be
       0.19280055 0.09533987 0.1773373 -0.17787983
000300 db 53 49 bd ca f8 64 bd 3f 79 06 be b7 82 0a 3e
       -0.049152236 -0.055901326 -0.13132189 0.13526426
000310 12 b4 23 be 1c 50 f6 3c e9 93 47 be a1 53 cf bd
       -0.1598666 0.030067496 -0.19490017 -0.10123373
000320 be 16 94 bd aa e5 1d be 0a 3d 25 ba 93 24 3b 3e
       -0.072309 -0.15419641 -0.0006303346 0.1827567
000330 6d 0d 9e bc 4a 88 f4 bb 6a 0f 10 3e 37 b0 2b be
       -0.019293511 -0.007462536 0.1406838 -0.1676644
000340 ae 61 a4 3d 08 ec 20 be 9c 38 1d be cc 5a 61 be
       0.080264434 -0.15715039 -0.15353626 -0.22007293
000350 43 a2 a4 bd e1 af 23 be dc 45 1b be ee a0 a2 3d
       -0.080387615 -0.15985061 -0.15163368 0.07940851
000360 94 8c 1f be 1a b8 53 3e 00 26 fd bc bc 7a 48 be
       -0.1558097 0.20675698 -0.030901909 -0.1957807
000370 d3 09 0e be 4d 3a 86 bd d6 d2 49 3d 4e 7e 57 be
       -0.13870935 -0.06554089 0.049273334 -0.21044275
000380 8e 9f dc 3c 03 2e 51 be d4 f7 1a be c9 96 d0 bd
       0.02693155 -0.20427708 -0.15133601 -0.1018501
000390 66 cd 93 3d 1c 0d 99 3d 9b b9 00 bd 8d 94 f1 bd
       0.07216911 0.074732035 -0.031427007 -0.11795912
0003a0 64 0d 0b 3e 64 7d 3a 3e 84 9e 95 3d 96 5f bb 3d
       0.13579327 0.18211895 0.07305625 0.09149091
0003b0 65 ae 86 3d be 89 46 bd 86 b9 37 be 8b 03 34 3d
       0.06576232 -0.048471205 -0.17941865 0.04394869
0003c0 82 22 0a 3d 8c 61 8e 3e e5 05 d1 3e 31 ee 27 bf
       0.033724315 0.27808797 0.4082481 -0.65597826
0003d0 35 4d 21 3d 03 5b b0 be 04 10 0a 3f 2b 78 72 bf
       0.03938027 -0.34444436 0.5393069 -0.9471461
0003e0 43 81 08 3e 75 60 18 3e 21 3d 06 bd 8d d1 c9 be
       0.1333056 0.14880545 -0.03277314 -0.39417687
0003f0 30 c3 2e 3e 97 f5 36 3d 28 d4 1d 3e cd e3 89 be
       0.17066646 0.044667806 0.15412962 -0.2693161

network.0.bias f4 [128]
000000 82 6b 16 3e 26 e1 09 be 5e 54 9a 3d 2f 79 94 bd
       0.14689448 -0.13464794 0.07535623 -0.072496764
000010 52 50 47 3d 73 d2 d9 3d a7 dc a4 3d 17 70 e8 3d
       0.048660584 0.10635843 0.080498986 0.113495044
000020 42 17 17 be b4 a8 1c be a8 ac d9 3d c0 06 98 bd
       -0.14754966 -0.1529873 0.10628635 -0.074231625
000030 42 33 c4 bd fb 19 81 bc b7 a4 c1 bd fe 09 2b 3e
       -0.09580089 -0.015759459 -0.09455245 0.1670303
000040 48 88 36 3e df 86 cb 3c 94 0f e1 3d dc 62 72 bd
       0.17825425 0.024844585 0.109892994 -0.05917631
000050 96 ba 39 be 1e 5f 4c be 5b ad 42 3e ed e9 58 3e
       -0.18137583 -0.1995816 0.19011442 0.21182986
000060 26 d3 54 be a4 14 82 3b b4 10 d8 bd 55 eb 88 bd
       -0.20783672 0.0039697457 -0.10550061 -0.06685511
000070 ff 4d 33 be 0c dd 7b 3d ad 59 08 be 10 ff c9 3d
       -0.17510222 0.061490104 -0.13315459 0.098631024
000080 3e 95 ee bd 39 1d 46 3d 3c e2 f4 3c 9b 48 17 3e
       -0.116495594 0.048367713 0.029893033 0.1477379
000090 f4 28 2f 3e 8f f9 21 be 8f 06 03 3e 54 69 5f 3d
       0.17105466 -0.15817855 0.1279547 0.054543808
0000a0 18 28 10 3d 09 4a 8e 3d e3 e7 f6 bb 01 a9 7b bd
       0.035194486 0.06947715 -0.0075349673 -0.06144047
0000b0 c1 74 48 be 10 3c 36 be c6 29 f3 3d 76 c1 bf 3c
       -0.19575788 -0.1779635 0.11873202 0.023407679
0000c0 16 6d e1 3d 8b 87 1a be f6 b6 f2 3b 94 2b f6 3d
       0.110071346 -0.15090768 0.0074070645 0.120200306
0000d0 47 fb 4e 3e 9c 31 f0 3d e0 55 b5 3d f9 84 1e 3d
       0.20213042 0.11728212 0.0885427 0.03870103
0000e0 82 08 17 be de 39 13 3d 91 e1 3d be 8f 44 80 3c
       -0.14749339 0.03594386 -0.18543078 0.015657691
0000f0 f1 04 8f bd fa 59 8f bb d0 9b cc bd 5a 65 b0 3d
       -0.069833644 -0.0043747397 -0.099906564 0.08613081
000100 35 e5 ee 3d 6a 52 5e 3d f7 92 3d be dc ea a1 bc
       0.116648115 0.054277815 -0.18513094 -0.01976531
000110 ee 5f b4 3d 95 60 2f bd 70 79 50 3e 6b 55 e2 3d
       0.0880736 -0.042816717 0.20358825 0.110514484
000120 70 50 b4 3d 90 55 60 be fd 5f 54 be 26 82 67 3e
       0.08804405 -0.2190764 -0.20739742 0.22608241
000130 29 71 af 3d 4d df 31 be 1d 6c d5 3d f3 19 2a 3e
       0.085665055 -0.17370339 0.104210116 0.16611461
000140 2e e0 55 3e b9 55 2a be 42 07 01 3d 48 0c 12 3d
       0.20886299 -0.16634263 0.031501062 0.035656244
000150 b7 1a 4e 3e 0e d5 f4 3d 8b eb 62 be 19 1e 63 be
       0.20127378 0.119546995 -0.22160165 -0.2217945
000160 92 85 06 be 92 a9 95 3d 96 03 34 be 4e b1 b6 3d
       -0.1313689 0.073077336 -0.17579493 0.08920537
000170 c4 0c 67 3e 6a dc 4e bc 4e c5 a1 3d 66 7b e3 bd
       0.22563463 -0.012625793 0.07898961 -0.11107521
000180 84 19 35 bc 0f e7 71 be bb f2 bb 3d a0 78 f6 3a
       -0.011053447 -0.23623298 0.091771565 0.001880426
000190 aa fe 48 be 9f 51 25 be 10 f7 d2 3d a9 f3 9c 3d
       -0.19628397 -0.16144417 0.1030103 0.07663662
0001a0 10 e7 60 bd 6e 70 b1 bd 07 41 2f 3c e0 cc 1b 3e
       -0.05490786 -0.086640224 0.010696656 0.15214872
0001b0 41 19 6b be ff a8 2c be a0 da fa bd 09 ee e0 3d
       -0.22958852 -0.16861342 -0.12248731 0.109829016
0001c0 19 a8 ea bc 9a c5 54 3e 64 94 af 3d b6 f7 58 3e
       -0.028644608 0.20778504 0.08573225 0.21188244
0001d0 39 c1 c8 bc 26 34 94 3c a3 8a d0 3d 99 94 8a be
       -0.024506198 0.018091273 0.10182693 -0.27066496
0001e0 51 4f 1c be 51 9e 1a bc 20 1e 50 3e b5 97 cc 3c
       -0.15264632 -0.00943716 0.20323992 0.024974683
0001f0 81 01 d7 bc 30 cd 2a 3e f2 57 20 3b 9b 6d 6b 3d
       -0.026245834 0.16679835 0.0024466482 0.057477575

network.2.weight f4 [256, 128]
000000 bb 82 2e 3d 3f d0 6f 3c e8 d7 3a bd 05 69 80 bd
       0.042605143 0.014637052 -0.04561606 -0.06270031
000010 e4 66 18 3d f5 7c 87 bd 26 f7 c3 3c 84 75 99 3d
       0.0372075 -0.066156305 0.02392156 0.074931175
000020 2c fc d2 3c 24 bc 4f 3d 2f 2a 50 3d c6 29 39 3d
       0.02575501 0.050716534 0.05082148 0.045205854
000030 91 10 6f 3d 6c 6f b3 ba 17 49 a4 bd 26 6e 73 bd
       0.05836541 -0.0013689823 -0.08021753 -0.059431218
000040 d5 9d 8c 3b de 0d 02 be 18 81 ce bd 76 8d 7d 3d
       0.004291276 -0.12700602 -0.100832164 0.061902486
000050 1a 92 95 bd b4 21 02 bc 23 e4 b4 bd 59 49 b7 3d
       -0.07303257 -0.007942606 -0.08832576 0.08949537
000060 fe 74 46 bd c9 c4 33 bd 7e 6c 8f bd b4 0e d8 3d
       -0.048451416 -0.04388884 -0.07003115 0.105496794
000070 0e fb 0f bd 7c 0c f4 bc 46 62 e2 3c 6e f3 69 bd
       -0.035151534 -0.02979111 0.027634751 -0.05711692
000080 f8 b4 91 bd 69 e5 30 3d c2 a3 57 bb c5 8f 8b bc
       -0.07114595 0.043187533 -0.0032904004 -0.017036328
000090 d1 6f 58 3d 82 0c 17 3d 93 a0 36 bc d9 ff 5f 3b
       0.05284101 0.036877163 -0.011146682 0.0034179597
0000a0 52 6e 91 bc f8 60 29 bd cc af 5b 3d 5d 1d 53 3d
       -0.0177528 -0.041352242 0.05363445 0.051541675
0000b0 4e 0d 89 3d 35 17 06 bc 53 28 8f bd a0 e3 6b 3b
       0.06691991 -0.008184244 -0.06990113 0.003599383
0000c0 21 8d 73 bd 4c b5 8d bc 04 af 81 3b 98 40 21 3d
       -0.059460763 -0.017298363 0.003957631 0.039368242
0000d0 48 bc c9 bd 68 36 fe bb bc 56 ef bc 71 34 92 bd
       -0.09850365 -0.0077579506 -0.029216163 -0.07138909
0000e0 07 21 45 3d 9f 84 80 bd d0 78 92 3d f0 3c 17 bd
       0.0481272 -0.062752955 0.071519494 -0.03692335
0000f0 80 64 c5 3d b3 27 2e bd cc e7 27 bd c6 4a 42 bb
       0.096383095 -0.04251833 -0.040992543 -0.002964662
000100 2b 7e 88 3d f4 d5 89 3d 61 f8 b8 bd 8e cf a3 3d
       0.0666469 0.067302614 -0.090317495 0.07998572
000110 21 1d 08 bd 06 72 2e bd f3 b1 58 3c 42 18 83 3c
       -0.033230904 -0.04258921 0.01322602 0.016002778
000120 01 e6 5e bd e7 a7 48 bc 30 8a ac bd ca 69 5c 3d
       -0.054418568 -0.012247062 -0.08424795 0.053811826
000130 b0 a1 9a 3d cb b8 4d 3d c5 ba ef 3c 74 de 42 3d
       0.07550371 0.05022506 0.029263863 0.04757543
000140 6e 9d 44 bd 53 f4 85 3d 57 e1 f8 bb 83 05 a4 bc
       -0.0480017 0.06540742 -0.007595222 -0.02002216
000150 12 40 6e 3d db 45 96 bd 0e 36 12 bd 19 58 87 3c
       0.05816657 -0.073375426 -0.03569608 0.0165215
000160 19 58 16 3d d4 c0 10 3d 64 ba b1 3d 2c f2 a1 3d
       0.03670511 0.035340145 0.08678129 0.07907519
000170 df 07 8c 39 54 4a 96 bd 3e 69 2e 3c 52 e2 08 3d
       0.00026708745 -0.07338396 0.010645209 0.03341896
000180 de c7 c6 bc 30 03 c6 bd 0b 0b f5 bc dc fe de bd
       -0.024265226 -0.09668577 -0.029912492 -0.10888454
000190 8b 04 a5 bd c4 54 04 3d d2 34 9b bd 6a 98 e8 3d
       -0.08057507 0.0323074 -0.07578434 0.11357196
0001a0 79 db 5b 3c a9 be ce bc 50 15 8d bc bf 90 7f bc
       0.013419026 -0.025237398 -0.017222077 -0.015598475
0001b0 31 72 91 3a d5 eb af bd a9 11 c2 bc e9 2d ae bd
       0.0011096654 -0.08589903 -0.023690062 -0.085048504
0001c0 11 c2 3f 3d 95 1a a9 bd 50 b5 8c 3c e2 fa 54 3c
       0.046815936 -0.08257023 0.0171763 0.012999268
0001d0 56 5e f9 3d da d7 55 3c b4 a6 1c bd ed 2c 36 bd
       0.12176196 0.013051951 -0.038244918 -0.04447644
0001e0 47 18 b0 bd 41 6c 0f bc 67 4f 91 3d b6 ee a2 3d
       -0.085983805 -0.008753837 0.07095223 0.07955687
0001f0 d7 78 fe bc 80 d4 b4 bb b2 5c 89 3d b6 e9 a9 bd
       -0.03106348 -0.005518496 0.06707133 -0.0829653
000200 15 72 be 3c bd 39 1c bd 57 94 02 bd a7 35 a2 bd
       0.023247758 -0.038141 -0.03187975 -0.079203896
000210 fb b6 c9 3c f5 05 ed 3c 7a 69 8e bc 91 e2 73 3c
       0.024623385 0.028933505 -0.01738428 0.014885561
000220 30 66 48 3b a9 22 aa 3d 49 81 aa bd 40 2b e2 bc
       0.0030578487 0.08307392 -0.083254404 -0.027608514
000230 b5 fe e9 3b f7 e0 b0 3d 69 62 fd bc 67 79 ac bd
       0.007140959 0.08636659 -0.030930715 -0.08421593
000240 ae 35 86 bd c1 fc a9 3d 93 c0 92 bd 26 1f 86 3d
       -0.06553207 0.08300162 -0.07165637 0.0654891
000250 ee 96 d4 bb 93 53 92 3d da 27 1e bd 2d c6 07 bd
       -0.006487719 0.07144847 -0.038612224 -0.03314798
000260 13 02 ed 3d ce d1 97 3d a3 60 a0 bd 3a 39 64 bd
       0.11572661 0.07413064 -0.07830932 -0.055718638
000270 a6 06 8a bd 9b cc aa 3d 32 e6 a1 bd 3e 62 12 bd
       -0.06739549 0.08339807 -0.079052344 -0.035738222
000280 df e2 6c bd 4f f6 a1 3c 54 16 5e 3d dd 8d 20 3c
       -0.05783355 0.01977077 0.054220513 0.009799448
000290 e5 f1 74 bd 4b 23 8e 3d 26 c8 a6 3d 10 12 a6 3c
       -0.059801 0.06940325 0.08143644 0.020272285
0002a0 bc 63 6e bd 1d dc 23 3d f3 6b fc bd c3 ff 89 bb
       -0.058200583 0.04000484 -0.12325277 -0.0042113974
0002b0 56 00 6d 3d d0 09 a8 bd 8b ea 20 3d ee 40 dd 3c
       0.05786165 -0.082049966 0.039286178 0.0270085
0002c0 56 84 44 3d 01 3c 1a bd bc 56 30 3d 61 d5 70 3d
       0.047977768 -0.03765488 0.043051466 0.058797244
0002d0 4e 31 19 3d 87 94 80 3d d5 65 81 3a 3f dd 09 3c
       0.037400536 0.06278329 0.0009872267 0.008414566
0002e0 3f f2 0c ba 10 f2 05 bd bb 22 47 bc e4 cc 15 bd
       -0.00053766737 -0.032701552 -0.0121542765 -0.036572352
0002f0 0d 91 c2 3d 95 1b 7a bd 8d ed 86 3c 80 d5 22 3d
       0.095003225 -0.06106146 0.016470695 0.03975439
000300 d4 70 41 3d 75 97 c5 3c 95 fa fd bc 00 41 10 3d
       0.047226742 0.024120072 -0.031003276 0.03521824
000310 7f 38 d5 3d 32 10 a2 bd 34 9c 2a 3d 55 37 19 3d
       0.104111664 -0.07913245 0.041652873 0.037406284
000320 d9 24 e5 bc 48 7b ac 3d 30 f3 9b bd a0 1d 8d bd
       -0.027971672 0.084219515 -0.07614744 -0.06890416
000330 c4 78 e7 bb f6 10 d4 bc 1a 6b b7 3c be 4e 01 bd
       -0.007063957 -0.025886994 0.022389937 -0.031569235
000340 5e ee e6 bc d3 87 f1 3c eb bd 85 bc 64 38 e4 bd
       -0.028189834 0.029483711 -0.016325912 -0.11143568
000350 00 25 7d 3d 24 da 3c bd 28 e8 b3 bd 21 64 80 3d
       0.061802864 -0.046106473 -0.08784515 0.06269098
000360 c6 1f 1e 3d 25 d2 c9 bc 58 82 e3 3b 19 30 7c bd
       0.03860452 -0.024636338 0.0069430284 -0.061569307
000370 14 b7 41 3c 7c 70 c4 3d 21 78 b1 bd 44 5b 86 3c
       0.011823434 0.09591767 -0.08665491 0.01640094
000380 1d 65 cf ba eb 3c 71 3d 98 cd ac 3d 0b 14 43 bd
       -0.0015822981 0.058895987 0.084376514 -0.047626536
000390 bf 1c 39 3a b6 c1 a9 3d 76 33 4d bd 9d 61 c9 bd
       0.00070614734 0.082889006 -0.050097905 -0.098330714
0003a0 31 a5 a0 bc 13 1e e1 bd 97 3c 5b bd 33 1d 81 bc
       -0.01961002 -0.10992064 -0.05352458 -0.015760994
0003b0 65 aa 94 bb 34 c8 39 bd cf 7c 3e 3d c2 ee 1e 3d
       -0.004536914 -0.045356944 0.046505746 0.038801916
0003c0 4c 0f df bb b8 32 bb bd 2e 89 be bc e2 6f 49 ba
       -0.0068072435 -0.09140533 -0.023258772 -0.00076842133
0003d0 6f 8b 86 3c fd 38 c6 3c ab 43 5a bc 79 ac d7 3c
       0.016423909 0.024197096 -0.013321797 0.026327359
0003e0 02 8a 00 3c 6b 9d b3 bd 0e e5 4d bd bb 75 3b bd
       0.007845404 -0.087702595 -0.05026727 -0.045766573
0003f0 ac a5 bb bc d7 bf 01 3d c1 03 18 bd 8f cc bc bc
       -0.022906147 0.031677093 -0.037112955 -0.02304676

network.2.bias f4 [256]
000000 62 fb a7 3d 58 2b f1 bc 29 dd 9d bd e3 bf 03 3d
       0.08202244 -0.029439613 -0.077081986 0.03216542
000010 86 5e 3f 3d 2e ee 2b 3b 46 4d 6e bc fb c4 9b 3d
       0.046721004 0.0026234495 -0.014544791 0.076059304
000020 8a 05 ee 3c e6 c2 80 bd aa af 1f bd e9 a0 18 bd
       0.029055376 -0.06287174 -0.038985886 -0.03726283
000030 38 e5 65 3d 34 10 22 3d b0 70 b1 bd 8b d0 b1 3a
       0.056126803 0.039566234 -0.086640716 0.0013566179
000040 18 56 1e 3c 5d 3f 9c 3d 73 7a 5f bd 38 3b d0 bc
       0.009664081 0.07629273 -0.054560136 -0.025418863
000050 2e e0 6d bd 31 a5 36 bc 14 d0 ad bd 08 6e 4c 3d
       -0.058075123 -0.011147783 -0.084869534 0.04990962
000060 22 db 74 bd 2a 96 6f 3d c7 79 99 bd 2d 5e 93 3d
       -0.059779294 0.058492817 -0.0749393 0.07195697
000070 db 64 4d 3d 2d c5 9d bd d9 ba 65 3d c5 4e 96 bd
       0.05014501 -0.07703624 0.056086395 -0.07339243
000080 d5 58 a6 bb b9 f2 c4 bb 66 76 a4 3d ae 9b d0 bd
       -0.0050765076 -0.00601038 0.08030395 -0.101859435
000090 af 4d 69 bd 66 37 2b bd cf ff 9a bd 9b 7f 0a be
       -0.05695885 -0.04180088 -0.07568323 -0.1352524
0000a0 44 e4 73 3d 83 fd 92 3d cf da 14 3d 11 88 90 bd
       0.059543863 0.0717726 0.036341485 -0.070572026
0000b0 f7 4d 30 bd 48 4a 80 3b 3f e7 99 bd 76 f8 9f bd
       -0.043043103 0.003915105 -0.0751481 -0.07811062
0000c0 92 1b cd bc 48 c4 18 3d 8a 7a 58 3d 07 50 5b bd
       -0.02503756 0.037296563 0.052851237 -0.053543117
0000d0 69 ef b3 3d da 76 8f 3d 38 d9 3a bc 1c e0 85 bc
       0.08785898 0.07005091 -0.011404328 -0.016342215
0000e0 6c 45 c0 bc 3e c6 d2 bd 68 88 81 bd aa b1 34 3d
       -0.023470603 -0.10291718 -0.063248456 0.044114746
0000f0 82 81 55 3d 82 81 6f bd 9f 05 5a bb c3 9f a4 3d
       0.05212546 -0.058473118 -0.003326751 0.08038285
000100 39 0b 95 3d ff f2 75 3d ae 38 77 3c d6 aa 93 3b
       0.07277531 0.060046192 0.015089197 0.004506449
000110 52 18 24 3c 7a 28 44 bd 44 8b 2e 3d 23 32 91 bd
       0.010015564 -0.047890164 0.042613283 -0.07089641
000120 6b 44 6c bd 95 24 d4 bc 5b f6 97 bc 74 b1 7d 3d
       -0.057682436 -0.02589635 -0.018550089 0.06193681
000130 2c c7 d2 bb 9c e4 48 3d 79 32 bf ba 5d 5f 50 bd
       -0.0064324345 0.049046144 -0.0014587186 -0.050872196
000140 df ec c1 bd de 70 60 3d 92 7c f5 bd c8 6a 78 3d
       -0.09469008 0.05479514 -0.119866505 0.06064871
000150 b9 43 84 bd 10 4d 98 bc 8e 50 32 bd 1e 29 87 3b
       -0.064582296 -0.018591434 -0.043533854 0.0041247746
000160 cc 45 4c 3c 2f 0c 6d 3c 0e 69 42 3d 39 04 16 3d
       0.012467813 0.014468237 0.04746347 0.03662512
000170 ee f3 40 3d c2 57 c4 3d ce 5c ca ba 8c bc d3 bd
       0.04710763 0.09587051 -0.0015439035 -0.10338697
000180 6b 9c 69 3c 37 79 a2 3b 80 aa b1 bd c1 b2 a3 3c
       0.014258484 0.0049582976 -0.086750984 0.019982697
000190 b5 4c 5f bc 5b 61 79 bd ad 7a ef 3c fb ef c6 bd
       -0.013629128 -0.06088386 0.029233301 -0.097137414
0001a0 fa 4f 6d bd f9 cd b3 3d 5c 0c e6 3c 61 ab d7 ba
       -0.0579376 0.087795205 0.028082065 -0.0016454273
0001b0 fb c6 66 bc a0 ee 08 3c 34 21 5a 3c 57 b2 9d bd
       -0.014085527 0.008357674 0.01331358 -0.07700031
0001c0 f4 9e 1f bd b6 f7 01 bd 2e 84 73 bd 99 ec c0 bc
       -0.03896995 -0.031730376 -0.05945223 -0.023550319
0001d0 b4 11 9e 3d ed 48 88 3d 78 16 50 3d d3 54 12 bd
       0.0771822 0.066545345 0.050802678 -0.035725426
0001e0 f6 af 75 bd f7 dc b0 bd 2f 11 aa bd ad 55 e2 ba
       -0.059982263 -0.08635896 -0.08304059 -0.0017267965
0001f0 13 89 e6 bc 33 35 89 bd 23 fa d8 bd d8 72 4c 3d
       -0.028141534 -0.066996 -0.10594585 0.04991421
000200 00 eb 86 3d dc 7c a5 bc 2f d7 1f bd 14 0b 9c 3c
       0.065877914 -0.02020114 -0.039023574 0.019048251
000210 1c 69 8f bd aa 79 44 3d b1 5b fa 3c 9a ce 9f bb
       -0.0700247 0.04796759 0.0305613 -0.0048769237
000220 2c 89 9a bd 95 02 92 3d cb fb 77 3b 29 4d 9d bd
       -0.07545695 0.07129399 0.003783929 -0.07680733
000230 44 51 0e bd 07 6e b1 bd 3e 00 2f 3d e2 dc bd bc
       -0.03474547 -0.08663564 0.04272484 -0.023176614
000240 fb ab a7 3d 6f bc 0a bd b3 60 72 bd 80 72 e6 3d
       0.081870995 -0.03387111 -0.05917425 0.11252308
000250 30 47 36 bd bc 67 6f 3d 96 e2 94 3d 53 51 83 bc
       -0.044501483 0.05844854 0.0726978 -0.01602999
000260 3f 72 f9 bb 41 01 88 3d f0 9b 96 bb 3b 60 41 bc
       -0.007612496 0.06640864 -0.004596226 -0.011802728
000270 4d d0 e4 3d 1b 3d ac 3d 4d bd 06 3d dc 20 82 bd
       0.11172543 0.084100924 0.032895375 -0.06353924
000280 24 db 85 3d ab d6 3a bd 6a 02 c6 bb 10 73 b6 3d
       0.065359384 -0.04561488 -0.0060427682 0.08908665
000290 d8 09 87 bd 80 2e eb bc 17 fb 78 bd c5 fd ac bc
       -0.065936744 -0.028708696 -0.060786333 -0.0211171
0002a0 26 a0 58 3d 3c 00 af bd f7 24 64 bd 8f 4a 39 bc
       0.052887104 -0.085449666 -0.055699315 -0.01130928
0002b0 4f 1c 88 bd 89 6b 29 bd 1a d4 92 3c 52 18 fa bb
       -0.066460244 -0.04136232 0.017923404 -0.0076322937
0002c0 89 8c e6 3b ad 4f 14 3e 75 f2 96 bd dd d7 3b bd
       0.007035796 0.14483519 -0.07370464 -0.04586016
0002d0 ca d0 24 3d 32 37 b5 bc eb c9 b2 3b c1 7b 8b 3d
       0.04023818 -0.022121046 0.0054561994 0.068107136
0002e0 af 11 d3 bb 3d 11 0c bd 8b f4 6b 3d 87 cd 85 bd
       -0.006441317 -0.034196127 0.05760626 -0.06533342
0002f0 6a a7 87 3d 48 9d 8e bc 55 99 1f bd 12 79 97 3d
       0.066237286 -0.017408982 -0.03896459 0.07396139
000300 f4 92 88 3c 90 44 a8 bd 7c b3 85 3c 66 71 21 bd
       0.016671635 -0.08216202 0.016320936 -0.039414786
000310 1d 74 09 3d 0a 0a 87 bd 4a f9 27 3c 23 de a1 3d
       0.033558 -0.06593712 0.010252306 0.07903697
000320 94 ee a9 bc 65 1a 0d bd ab 23 85 3c 25 ab 0d 3d
       -0.020743646 -0.034449 0.01625236 0.034587044
000330 b5 9e 8c 3d f5 ab 1a 3b bb b6 dd 3c 1a 9d b8 3d
       0.068662085 0.002360103 0.027064672 0.0901434
000340 d5 db 59 3d 38 6c 86 bd d9 f6 7d bd 26 a2 85 bd
       0.053188164 -0.0656361 -0.06200299 -0.06525068
000350 2a c5 92 3d 73 40 17 3c a8 0f 9e bd 48 b3 03 3d
       0.07166512 0.0092316745 -0.0771783 0.032153398
000360 25 b3 30 3d a6 7f e8 3b a6 33 36 bd ea c7 e4 bb
       0.043139596 0.007095295 -0.04448285 -0.0069818394
000370 79 98 1b bd 76 19 18 3d 35 b4 a2 3c 14 4e a5 bc
       -0.037987206 0.037133656 0.01986132 -0.020178832
000380 f2 e5 0a 3b 54 43 d2 3b 6c 10 4e bd c7 3f 0d 3d
       0.0021194187 0.0064167175 -0.05030863 0.03448465
000390 6d 24 b6 bb bd 9a 17 3d 6e a5 3b 3d a2 d5 77 3d
       -0.0055585415 0.037012804 0.045812063 0.06050647
0003a0 08 ce 74 3d 38 b6 b4 3c c4 9e 7a bd 89 9a fe bc
       0.0597668 0.022059545 -0.061186567 -0.031079547
0003b0 43 8c 1f bd f7 38 32 bd 34 23 87 3a eb d0 da bc
       -0.038952123 -0.043511357 0.0010310174 -0.026710948
0003c0 a3 28 03 bd f9 1e 76 3d 81 ba 3f 3c 3c 80 c5 bd
       -0.032021176 0.06008813 0.011702181 -0.096435994
0003d0 ab 63 91 bd 4b e9 11 bd 9d a2 c3 bc 06 45 07 bd
       -0.07099088 -0.035622876 -0.023881251 -0.03302481
0003e0 38 c9 01 3d 9f 3f 7e bd 81 ff 9d 3d 42 49 27 3e
       0.031686038 -0.062072393 0.07714749 0.1633654
0003f0 f3 c5 81 bd 65 37 a3 bc 64 2f a3 bc 78 0b d8 3d
       -0.06336584 -0.019923875 -0.019920059 0.105490625

network.4.weight f4 [512, 256]
000000 04 59 45 3d 79 55 52 bd 67 8a 61 bb 13 fa 7f bd
       0.048180595 -0.051351044 -0.003441477 -0.06249435
000010 2e 38 62 bd 71 08 4f bd 44 2a 95 3c be 73 40 bd
       -0.05522936 -0.05054516 0.01820863 -0.04698538
000020 12 3f 07 bd f0 da 16 3d 9c 78 52 bc cc 63 e9 3b
       -0.033019133 0.03682989 -0.012846138 0.0071224924
000030 cf 6a 5d bd b4 14 6b bd 26 f1 44 3d aa 59 7d 3c
       -0.05405694 -0.05739279 0.04808154 0.015463272
000040 47 0d 67 3d d9 c4 cd bc 8c 23 d1 bc 14 57 00 bd
       0.056409147 -0.025118278 -0.025529645 -0.031333044
000050 b9 12 d8 bc f7 12 af 3c c4 15 a9 bc 77 9f e8 bb
       -0.026376115 0.021371348 -0.020640261 -0.007099088
000060 4a 74 0d ba 5c 8e 81 bc dd bf 41 bd f2 40 6f bd
       -0.00053960516 -0.015814953 -0.047302116 -0.058411546
000070 f5 b3 13 bd b9 ea a1 bc 16 7c 14 3c 9a 14 45 3d
       -0.036060292 -0.019765245 0.0090627875 0.04811535
000080 b5 26 aa bc 01 c4 75 bd f6 52 d3 bc e7 01 b4 bc
       -0.02077041 -0.060001377 -0.025796395 -0.021973563
000090 9a d4 2a bd 9e fd 50 bc 70 26 65 bd 24 23 cc 3c
       -0.04170666 -0.01275578 -0.05594486 0.0249191
0000a0 67 43 52 3d d2 50 77 3d 0f 56 46 3d 0c 65 96 bb
       0.05133381 0.06037981 0.048421916 -0.0045896824
0000b0 2c 27 71 bd 48 83 ae bc c7 ca 16 3d 9d d4 d2 3c
       -0.058875248 -0.021302834 0.036814477 0.025736148
0000c0 e1 2b 48 3c 25 12 49 3d 9c 6c 5b bd 2a f8 4b 3d
       0.012217493 0.04908957 -0.053570375 0.049797215
0000d0 f2 2f 1d bd 18 bf e7 3b f6 25 7a bd 4c f1 1c 3c
       -0.038375802 0.0070723407 -0.06107136 0.009579014
0000e0 51 bb 0d bd e5 a1 71 3d d1 9b a4 bb 3f 63 7a bd
       -0.034602467 0.058992285 -0.0050234576 -0.061129805
0000f0 ab fd 07 bd 4d 33 55 bd df 97 fe bc 4f 54 d1 bc
       -0.0332009 -0.052050877 -0.031078277 -0.025552897
000100 c6 36 82 bb c8 3e e5 3c 80 a3 4f bb 76 1b df 3c
       -0.0039738147 0.027984038 -0.0031683147 0.027234774
000110 64 77 45 bd aa 9b d6 bb 34 3e 26 bc 91 60 89 3b
       -0.048209563 -0.0065493183 -0.010146666 0.00419242
000120 a7 8f f3 3c 5b 62 b4 3c 7c 60 ed bb 70 b1 ec 3b
       0.029731585 0.022019556 -0.007244168 0.0072233006
000130 da 36 5a 3d ae f1 51 bb 42 04 13 bd 77 c1 1a 3d
       0.053274967 -0.0032034921 -0.035892732 0.03778216
000140 dd dd 61 bd d8 ab 03 3c 4e bb 10 bc aa 16 83 bc
       -0.055143226 0.008036576 -0.008833719 -0.016002018
000150 96 48 0d bd 24 8a 1e bd 87 5b b5 3c cc ec 67 bd
       -0.03449305 -0.03870596 0.02213837 -0.05662231
000160 8c 89 05 bc 00 40 3b 3d 3d f7 c5 3b a6 07 5d 3c
       -0.0081504695 0.045715332 0.006041436 0.013490593
000170 21 23 70 3c 51 4e 29 bc 9e c6 8d bc 6a 97 6a bd
       0.014656813 -0.0103336135 -0.017306622 -0.057273306
000180 f9 26 71 3d d3 01 e3 bc 71 d6 8c 37 e2 4e 1e bc
       0.058875058 -0.02771083 1.6789158e-05 -0.009662362
000190 af f5 3e 3d 89 3c 4e 3d 82 9e 5f 3d c8 56 81 3d
       0.04662102 0.0503507 0.054594524 0.0631538
0001a0 2a 70 f9 3c 6d 47 d4 ba b2 64 51 bd e5 f7 1d 3d
       0.030448992 -0.0016195603 -0.05112142 0.03856649
0001b0 03 55 cb bb 0d bc b6 bc 83 d6 c8 3c 1f de 37 bc
       -0.0062052025 -0.022306466 0.02451635 -0.011222391
0001c0 34 3a 48 bd 13 6f 42 3b 11 ff 80 3d d1 05 5e bd
       -0.04888363 0.0029668256 0.0629865 -0.054204766
0001d0 ce d8 2f 3d a5 a9 e6 3c 57 bf a3 bc d6 bc ff bb
       0.04293137 0.028157065 -0.019988699 -0.0078044934
0001e0 d4 03 2b 3d 71 35 2e bd f5 73 66 bd 02 e8 0c bd
       0.041751698 -0.042531434 -0.05626293 -0.034400947
0001f0 f3 ce fb 3c 5d aa d6 3c 74 86 83 bd a1 75 01 3d
       0.03073833 0.026204282 -0.06422129 0.03160632
000200 5e d4 25 bd b0 bf 64 bd af 06 2c bd 60 1d 71 bb
       -0.040485732 -0.05584687 -0.04199856 -0.003679119
000210 af 7d 45 bd 29 3b 7e bd 3a ad 0e 3d e1 da ca bb
       -0.048215564 -0.06206814 0.03483317 -0.006190643
000220 7c 02 4c 3c 35 c3 dd bc dd 0e 55 3d 24 06 1c 3d
       0.012451764 -0.027070621 0.052016128 0.038091794
000230 87 68 73 3d 72 cd b4 bb 02 e9 55 3d fe 5c 1f 3d
       0.059425857 -0.005517655 0.052224167 0.038907044
000240 18 6c 5b bd eb b1 e2 bc 36 bd 5e bd e2 41 08 3d
       -0.053569883 -0.027672729 -0.054379664 0.033265956
000250 e7 03 a4 3c 23 ec a2 bc ae fe 43 3d 15 35 6a bd
       0.020021392 -0.01988799 0.047850303 -0.05717953
000260 de ba 54 bd 4f 1d 22 bd 5b a3 c0 3c 6d 79 7e 3d
       -0.051936023 -0.039578732 0.023515394 0.06212752
000270 40 d2 5e 3d 2b 0c 9a bb 05 71 ee 3c fa fa 58 3d
       0.05439973 -0.0047011576 0.029106626 0.052973725
000280 29 d2 52 3d 8e 61 f7 ba 0d 9b 5b bd eb c5 35 bd
       0.051469956 -0.0018873678 -0.053614665 -0.044378202
000290 de ef 77 bd 27 b4 8a bb 5b 16 60 bd dd a8 5e bd
       -0.06053149 -0.0042329016 -0.05470882 -0.05436026
0002a0 b6 8f 3b bd f1 17 21 bd 62 d2 bd 3c 7b 93 ca bc
       -0.04579135 -0.039329473 0.023171607 -0.024728527
0002b0 7b 03 df 3a 78 86 02 bc cb fe d5 3c d4 22 5d 3d
       0.0017014587 -0.00796663 0.026122471 0.053988293
0002c0 94 dc e6 bc 94 28 23 bd 38 85 6c 3d fa fe 5d 3d
       -0.028181352 -0.03983362 0.057744235 0.054198243
0002d0 72 59 ee bc 64 24 61 3d 78 80 27 bd 4e a2 4c 3d
       -0.029095385 0.054966345 -0.040894 0.049959473
0002e0 14 3d 74 3c 59 72 e3 3c ef b0 5f 3c 89 8c df bc
       0.01490714 0.027764486 0.013653024 -0.027288692
0002f0 80 b2 f0 3c 00 dd 66 3c ee 05 09 3d bc bf 26 bd
       0.02938199 0.014090776 0.03345292 -0.040710196
000300 b4 7d 25 3d 03 c0 41 3d 34 26 35 bd 03 55 70 3b
       0.040403083 0.047302257 -0.044225886 0.0036671765
000310 4a 96 0c 3d 48 ad 54 bd f6 b8 4e bd 3e e1 72 bc
       0.034323014 -0.051923066 -0.05046936 -0.01482421
000320 a0 82 5a bd 14 e6 cf 3c d0 be 07 3d 8d 5d 34 3c
       -0.05334723 0.025378264 0.033140957 0.011008632
000330 09 46 5a bd 63 69 85 3c 92 ad 47 bc e6 d2 72 3d
       -0.053289447 0.016285604 -0.0121873785 0.05928316
000340 a2 17 ed 3b c7 d4 fa 3b d2 6b 1a 3c 41 0b 7e bd
       0.0072354833 0.0076547596 0.00942512 -0.06202245
000350 48 70 06 3c 33 95 3b 3d f3 50 c5 bc 9c b0 69 3d
       0.008205481 0.045796584 -0.024086451 0.057053193
000360 60 23 0d 3b fc 55 73 bd d6 db a2 bc 28 48 75 bc
       0.0021535978 -0.059408173 -0.019880217 -0.014970817
000370 74 be 78 bd f0 97 ff ba 53 02 ff 3c 77 fd fb bc
       -0.060728505 -0.0019500237 0.031129038 -0.03076051
000380 93 86 f4 3c c2 0c 25 bd f1 11 0d 3d 74 31 90 3c
       0.029849326 -0.04029537 0.03444094 0.017601706
000390 3d 0f 80 3d cc 4f 2b 3b 01 38 4c bd 00 00 14 b7
       0.062529065 0.0026140092 -0.049858097 -8.821487e-06
0003a0 02 9e de 3a ae 9d 5c 3d 4f 29 0a bd a2 a4 20 bd
       0.0016984346 0.053861313 -0.0337308 -0.039219506
0003b0 1a 07 da bc e1 92 a9 3c d8 e5 29 3c 55 08 60 bd
       -0.026614714 0.02069992 0.01036974 -0.054695446
0003c0 f7 dc 47 bd d0 f6 01 bc 22 b8 d2 bc 32 55 cc bc
       -0.048794713 -0.00793238 -0.025722567 -0.024942968
0003d0 0f 15 1a bd 77 6e 5f 3d a2 93 05 3d 5a ef 35 bb
       -0.03761774 0.054548707 0.032611497 -0.0027761073
0003e0 83 54 2a bd de 57 65 3d 81 5d f2 bc 82 0f d5 bb
       -0.041584503 0.055992 -0.029585602 -0.006502093
0003f0 80 bf 9e bb 33 2c 60 3d 4f 22 0b bb ce dc 20 bd
       -0.004844606 0.05472965 -0.0021230166 -0.039273076

network.4.bias f4 [512]
000000 de 7d 45 bd b5 d3 86 3d 37 c4 05 3c 2c 4f 02 bc
       -0.04821574 0.06583349 0.008164457 -0.007953446
000010 f5 57 83 3b e7 98 ca 3a 4a 99 02 3c 3c 38 81 3d
       0.004008288 0.0015456945 0.007971117 0.06309554
000020 79 b4 2e 3d 7b 21 68 3d 02 b0 a3 3c 37 11 f0 bc
       0.04265258 0.056672554 0.019981388 -0.029305084
000030 a9 9b 3f bd 32 a2 7c 3d be 4c 43 3d f2 b3 32 3c
       -0.04677931 0.06167812 0.04768061 0.01090716
000040 4c f4 7b bd 8e 73 d9 bc cf c5 55 bc 32 20 4f bd
       -0.061512277 -0.026544359 -0.0130476495 -0.050567813
000050 a2 df 48 bb 9f 4f ae bd 46 20 98 bc f3 e7 22 3a
       -0.0030650874 -0.0851128 -0.018570077 0.00062143727
000060 6a 2d 13 ba 54 24 07 3d 91 80 d1 bc eb 93 8f 3d
       -0.0005614372 0.03299363 -0.025574 0.07010635
000070 f1 c8 91 bd e1 01 24 bd 33 a4 0c 3d 66 be 64 bd
       -0.07118405 -0.040040854 0.03433628 -0.05584564
000080 cf 42 85 bd 52 61 b8 3d 99 02 9d 3b 65 6d 44 3c
       -0.06506883 0.090029374 0.0047915694 0.011988972
000090 8a dd 04 3d d9 11 67 3c 99 70 0a bd 3c f3 7b bc
       0.03243784 0.014103376 -0.033798788 -0.015377816
0000a0 ea e9 94 bc 4c 58 0e 3c 06 64 69 3d 16 8d a1 3d
       -0.018177945 0.008688044 0.056980155 0.07888238
0000b0 31 e5 87 3d 12 00 64 3d fc da 7d bd 74 8c 14 3d
       0.06635512 0.05566413 -0.061976418 0.03626676
0000c0 ad a8 00 bc d5 7d a9 3d 63 2c 14 bd f8 d0 0b bd
       -0.007852715 0.08275954 -0.036175143 -0.034134835
0000d0 72 38 b4 3d 2b ad a8 bc 3c 7b ce 3c bf ca de 3d
       0.087998286 -0.020590385 0.025205247 0.108785145
0000e0 3d c5 e9 3d 86 8e 22 bd c2 b2 a1 bc 95 4f b8 bd
       0.11414573 -0.039686702 -0.019738559 -0.08999554
0000f0 19 e4 ad bd 69 9c 01 bd 3c 64 2d bd c3 53 f4 3c
       -0.08490772 -0.031643305 -0.04233192 0.029825097
000100 9c 23 93 bd 3a f2 0b 3d 44 1d 7d bd dc 2e 91 bd
       -0.07184526 0.034166552 -0.061795488 -0.07089016
000110 5e 28 f2 3b 0e 59 64 3b b5 6c dc bc 1b c7 3c bd
       0.007390066 0.003484312 -0.026907304 -0.04608832
000120 fd 44 fd bc 58 75 33 bd 4f 06 e4 3b dd 5a 70 3d
       -0.030916685 -0.04381308 0.00695876 0.058680404
000130 eb d8 93 bb 93 56 3d bc 9b 17 9f bd 53 bf 12 3c
       -0.0045119426 -0.011556285 -0.07768174 0.008956748
000140 6f f0 32 3c c8 f7 72 bd dd ad 8a bd 54 1f 28 3d
       0.010921582 -0.059318334 -0.06771443 0.0410455
000150 f5 d9 80 bc 5b fb 81 3d 7b 98 63 bc 4b f8 bb 3c
       -0.01572893 0.063467704 -0.013891335 0.022945544
000160 57 43 ae bb 90 7e 5c 3d 78 3d 21 bc 28 87 90 bc
       -0.005318086 0.053831637 -0.009841315 -0.017642573
000170 b1 7a 6e bd eb 06 f8 bc b1 c7 15 3d b4 0e c1 3d
       -0.058222476 -0.030276736 0.036567394 0.094266325
000180 61 78 cc bc e2 a8 9a 3c 9f db 67 3c e3 40 7c 3d
       -0.024959745 0.018879358 0.014151483 0.06158532
000190 35 4c 2a 3c 91 bd b8 3c a7 a1 b3 bd f1 fb 4e 3d
       0.010394146 0.02255133 -0.08771067 0.05053324
0001a0 b3 2d a6 39 9f 76 24 bd f3 3c 8b 3d c2 ac ed 3c
       0.00031696036 -0.04015219 0.067987345 0.029013041
0001b0 e2 35 af bc 7b 0a 91 bc 6c d5 fa 3b bc e6 1a bb
       -0.021387998 -0.017705193 0.0076548364 -0.0023636064
0001c0 cb 43 7b 3b ec b8 8b 3d 34 98 fa bc 25 8f 0a 3d
       0.0038339968 0.068223804 -0.030590154 0.03382792
0001d0 f9 5d 5e 3d ed 23 1c bd 1c 01 0f 3e bf 4b f7 3a
       0.054288838 -0.0381202 0.13965267 0.0018867179
0001e0 21 37 13 bd f7 48 2c 3d 4c a2 8a bc be a5 66 3d
       -0.035941247 0.042061772 -0.016923092 0.056310408
0001f0 34 e0 55 3c 4f 29 a6 bd f2 f3 25 3c 73 cc d8 3c
       0.0130539425 -0.08113348 0.010128962 0.026464676
000200 ab 2b 01 bd ec 3a 50 3d e4 9f 8f bd 13 a5 c4 3a
       -0.031535786 0.050837442 -0.070129186 0.0015002809
000210 dc 48 59 bd e5 90 5e bd 0e 1b 17 3d 04 b7 ac 3c
       -0.053048 -0.0543374 0.036891036 0.021083362
000220 4e 66 d1 3c ac 74 1b 3c d0 bd 60 3d 62 71 f4 3c
       0.025561478 0.009488266 0.05486852 0.029839221
000230 c2 46 60 bd ea ae 8e bd ae 4c c8 bc 2b da 0a bd
       -0.05475498 -0.06966956 -0.024450626 -0.033899467
000240 32 d2 30 3d 62 e7 42 bd 8a 29 68 bc 06 b7 62 3d
       0.043169208 -0.047583945 -0.01417006 0.055350326
000250 a4 24 5d 3d b5 63 8b bb db 46 2b 3a cc fa 7e bd
       0.05399002 -0.0042538294 0.00065336906 -0.062250897
000260 10 88 ae bc 38 77 9c 3d 21 35 34 bc 5e 58 1d 3d
       -0.021305114 0.07639927 -0.010998995 0.03841435
000270 81 67 79 3d d1 fc 2e 3d f5 99 83 bb e3 40 0a bd
       0.060889725 0.042721573 -0.004016156 -0.033753287
000280 29 bd 00 bd 90 e3 59 bd ac 32 67 bd fe ae 7f bd
       -0.031430397 -0.053195536 -0.05644481 -0.062422745
000290 4e 7f c3 3c 40 7b 21 3d ca cc 34 bc c4 39 2d 3d
       0.023864415 0.03942418 -0.011035154 0.042291418
0002a0 de 99 99 bd 5c 3f 64 bd 7f 07 2f 3c 5a 79 63 3d
       -0.07500051 -0.055724487 0.01068294 0.05553565
0002b0 6b 7d 4e 3d 40 b4 76 bd 15 57 07 3c 11 b4 18 3b
       0.050412577 -0.060230494 0.008260508 0.0023300687
0002c0 95 42 d4 bd 93 85 63 3d 9c 55 f3 bc ce 65 80 3d
       -0.10364262 0.05554731 -0.029703908 0.06269418
0002d0 8a fb 0a 3d 93 68 bd bc 5c e4 87 3c 8e ed 08 3d
       0.033931293 -0.023121154 0.016588382 0.033429675
0002e0 be 49 80 3c da fa 52 3d 21 f1 36 3d ae 7d 3a 3b
       0.015660163 0.051508762 0.044663552 0.0028456259
0002f0 bd fd e9 bc 4a 8d 24 3d 6a 28 94 bc 55 69 1e 3d
       -0.028563375 0.040173806 -0.018085677 0.03867467
000300 dc 4e a0 3d d7 bc 96 bb e9 0f 0b bd 43 fc 60 3d
       0.07827541 -0.004600148 -0.03395072 0.054928076
000310 1f bf 92 3c de 00 17 bd ad bc 45 3d c3 ca 3a 3a
       0.0179134 -0.03686606 0.04827564 0.0007125551
000320 36 cd 5d 3d 0b 64 18 3d b1 cf 08 bd 79 df d7 bd
       0.054150783 0.037204783 -0.033401195 -0.10540671
000330 03 2b 61 3c d1 eb 94 bd 61 cf 69 bc 7b ed c9 bc
       0.013743165 -0.07271541 -0.014270634 -0.024649372
000340 b5 9c 87 bd 29 bb 73 3c b8 09 94 3d 9d 89 c5 3c
       -0.06621686 0.014876165 0.07228416 0.02411347
000350 06 57 71 bd 90 6f 89 3c 7a 93 b0 bd 1f 8e 5d 3d
       -0.058920883 0.01677683 -0.08621879 0.054090615
000360 af e9 93 bd 50 a1 b3 bc d1 f7 1d 3d 76 6e e3 3c
       -0.07222306 -0.021927506 0.038566414 0.027762633
000370 1d 2c a7 3d 1c 3f 0b 3a 9f 67 43 3d 8e 30 25 bb
       0.08162711 0.0005311833 0.047706243 -0.0025205943
000380 0d b5 d6 3c a9 2f 28 3c 2d 94 05 be 81 ad 84 3d
       0.026209379 0.010265269 -0.13044806 0.06478406
000390 5f f4 1d bd 9d 0c 65 3d d1 0e 25 3d 28 49 af 3d
       -0.03856313 0.055920232 0.040297333 0.08558875
0003a0 c3 a8 13 bd 09 b4 2f 3d 65 ff 5b bd de ce 5e 3d
       -0.036049616 0.042896304 -0.05371036 0.054396503
0003b0 8a 2a 0a 3d 8b 42 e4 bd 32 aa f4 bc c2 b7 79 bd
       0.033731975 -0.111455046 -0.029866312 -0.06096626
0003c0 a0 44 88 b9 2a e7 98 3d f7 d7 c3 bc 44 8d 3e bc
       -0.0002599107 0.07465966 -0.023906691 -0.01163036
0003d0 ec ea b9 3d e3 3d 2e 3d 06 cf 1b 3d 4e 1a 8b 3d
       0.09078011 0.04253949 0.03803923 0.067921266
0003e0 46 48 3e 3d dd 09 ae 3c 07 85 06 bd 2e 32 38 bc
       0.046455644 0.021244938 -0.03284171 -0.0112424325
0003f0 67 9b e8 bb d7 f8 66 bd f1 97 c9 3c 58 26 02 bd
       -0.0070986035 -0.056389656 0.024608584 -0.03177485

network.6.weight f4 [64, 512]
000000 45 7d 20 bd a8 0c 03 bd 97 e7 7c bc 46 6c 1f 3c
       -0.039181966 -0.03199449 -0.015436075 0.009730404
000010 8f e5 19 3d b0 f0 16 bc cc 71 7a 3b 32 64 06 bc
       0.03757244 -0.009212658 0.00382148 -0.008202599
000020 49 9d 3a 3d 65 a8 39 bd 2b 52 70 bd b2 e8 38 bc
       0.045560155 -0.04532661 -0.05867211 -0.011285948
000030 3f 9a bf 3c 7c 1a db 3c 73 98 2d bb 21 83 66 bc
       0.02338898 0.026746027 -0.0026488572 -0.0140693495
000040 f0 28 5e ba 77 11 11 bd 64 4c a7 3b 9b 8f d1 3b
       -0.0008474728 -0.035417046 0.005105542 0.006395293
000050 8a 24 9a 3c c1 96 46 3b 14 22 3d bb f9 15 2c bd
       0.018816251 0.0030302259 -0.0028859423 -0.042013142
000060 2e e9 f8 bb 11 16 59 bd 1c 61 32 bd f2 2e 1f 3d
       -0.0075961566 -0.05299956 -0.043549642 0.03886313
000070 a6 17 ce 3c e4 85 f2 3c b7 eb 92 3a af c1 16 bc
       0.02515776 0.02960486 0.0011209165 -0.009201451
000080 e5 54 d4 bb 4e 2d bc 3c 9a c9 48 3d b8 59 04 bd
       -0.006479847 0.022970822 0.049020387 -0.032312125
000090 fe b1 d0 3c 3c e6 d7 3c c6 d2 be bc f6 77 92 bc
       0.025475498 0.026354901 -0.023293864 -0.017879467
0000a0 5e 65 94 3c a1 72 b7 ba d0 3a 76 bc 4f 80 03 3d
       0.018114742 -0.0013995954 -0.01502867 0.032104786
0000b0 56 78 06 3c 0f 8a 61 bc cc 94 4e bc a6 0e 1d 3c
       0.008207401 -0.013765826 -0.012608718 0.009586012
0000c0 f2 f5 ca ba e2 8b 1c bd a9 3f 32 3d 5d 2c 1f 3d
       -0.0015484674 -0.03821934 0.043517742 0.038860667
0000d0 9b cd 4c bd 7c c2 1f 3d 0c 55 2f 3d 54 25 a0 bc
       -0.05000077 0.039003834 0.042805716 -0.01954905
0000e0 c0 da 0e 3d 96 d2 4e 3b d6 11 13 3d f0 2d 27 3d
       0.034876585 0.0031558624 0.03590568 0.040815294
0000f0 6d c5 fe bb 0c 54 05 bd 81 6a 2e bd 22 df e4 bc
       -0.007775 -0.032550856 -0.04258204 -0.02793843
000100 44 9b 51 bb fc fe ed 3c f6 b2 c0 3c ba ce 1a bd
       -0.0031983415 0.02905225 0.023522835 -0.037794806
000110 23 37 c9 3c 57 23 34 3c ba 16 2d 3d 5b 37 d0 3b
       0.024562424 0.010994754 0.042258002 0.006354255
000120 47 f0 2a bd c6 da 11 3c 2e 45 d5 bc 21 1d 06 3d
       -0.041733053 0.008902257 -0.026033964 0.032742623
000130 ac c2 e0 3c ac 56 f3 3c ab e1 10 3d 1a 80 46 3c
       0.027436577 0.029704414 0.035371464 0.012115503
000140 7c 48 30 3d e8 38 e5 bc 6d 00 09 bd ba 55 db bb
       0.043037876 -0.027981237 -0.03344767 -0.006693569
000150 4b 0e 75 bb 0e 8b 58 3d 29 10 81 3c 89 01 af 3c
       -0.0037392552 0.052866988 0.015754776 0.021363037
000160 a4 e3 46 bd 5c ad 0c bc cd 5c 08 3c dc c1 1f 3b
       -0.04855694 -0.008586254 0.008322907 0.0024377024
000170 13 5d af 3b 4b 04 a3 3b 12 ae a5 bc a4 66 04 3d
       0.0053516715 0.004974877 -0.020224605 0.03232445
000180 02 97 ea bc b2 7a 63 3b f0 99 0d 3d db ed 11 3d
       -0.02863646 0.0034710583 0.034570634 0.035627227
000190 b0 84 e1 bb cf 6f 28 bb bd 50 0a 3d ad 38 84 bc
       -0.0068822727 -0.0025701409 0.033768404 -0.016140306
0001a0 71 4a e9 bc 1e a6 aa bc 0a 3d 07 3d da 76 0b bd
       -0.02847788 -0.020831164 0.033017196 -0.034048893
0001b0 c4 66 2e bd 31 7f 43 bc 86 83 01 bd 89 0f 04 bd
       -0.042578474 -0.01193218 -0.03161957 -0.032241378
0001c0 0e f4 f7 bb 53 f2 93 bc 6d ea e9 3c c8 60 e4 3c
       -0.0075669354 -0.018059885 0.028554166 0.02787818
0001d0 62 32 a9 bc 54 09 b7 ba f4 01 d4 3c de 43 0f bd
       -0.020653907 -0.0013964572 0.025879838 -0.034976833
0001e0 92 b9 0b bd 0b 8b 42 3d 02 14 2c 3c 01 31 05 3d
       -0.03411252 0.047495883 0.010502817 0.032517437
0001f0 6a 47 16 bd d0 23 f3 3c 5b 4c 03 bd b6 d5 11 bd
       -0.0366892 0.029680163 -0.03205524 -0.0356042
000200 d2 2a 20 3d 82 ca a0 3c f6 01 e7 bb 0c 94 97 3c
       0.039103337 0.019627813 -0.0070497943 0.018503211
000210 3e 7e 3f 3c 7e 18 a1 3b 6d d2 47 bd 3f 09 3c bd
       0.011687813 0.00491625 -0.048784662 -0.045907255
000220 44 3e b8 bc 34 28 94 bc a1 e4 0c 3d aa 92 06 3d
       -0.022490628 -0.018085577 0.034397725 0.032854713
000230 e9 a6 8f bc 7a 9c dd bc e4 a4 33 3a 6d 51 94 bc
       -0.017535644 -0.027052153 0.0006852879 -0.018105233
000240 9c 3c 7f 3c a9 e2 05 3d 74 90 ca 3b 26 17 53 3c
       0.015578415 0.032686863 0.006181771 0.012883937
000250 ed b0 4a 3d 86 a0 aa 3c 85 14 03 bd 70 80 e0 bb
       0.049485136 0.020828497 -0.03200199 -0.0068512484
000260 81 be 0f bc 17 15 75 bc e7 55 f6 bc b4 bf 4e 3d
       -0.008773447 -0.0149586415 -0.030070258 0.05047579
000270 d5 17 0f 3c 8c dc 3f 3d 50 19 e6 bc 92 85 c6 bc
       0.008733709 0.04684119 -0.028088242 -0.024233613
000280 0d 3b 44 bd 35 f8 de 3c 39 ed 0b bd 81 c5 dd bb
       -0.047907878 0.027217964 -0.03416178 -0.006767929
000290 82 86 46 3c d3 12 0d 3d 8f 56 dd b7 f8 86 9c 3c
       0.01211703 0.03444178 -2.638556e-05 0.019107327
0002a0 fd 6c 75 bd 8b f8 00 3d f0 b3 f6 3c 99 88 cd bc
       -0.059918392 0.03148703 0.030115098 -0.025089549
0002b0 47 36 c6 b9 f8 07 45 3b 03 7d 95 bc 5c d8 7f 3c
       -0.00037805943 0.0030064564 -0.018248087 0.015615549
0002c0 ee ce fc bb b1 b2 a1 3c a3 1f 38 3d 6a 25 13 3d
       -0.0077150976 0.019738527 0.044952046 0.035924353
0002d0 88 7c 50 bc a6 2f 01 bd df bf e3 3c fa c7 cc bc
       -0.012725003 -0.03153958 0.027801452 -0.0249977
0002e0 af 49 92 bc dd 41 00 3b 0a be af bc c4 79 ca bc
       -0.0178574 0.0019570508 -0.021452922 -0.024716265
0002f0 fa 2d 2a bc 7f 34 a8 bc db f1 af 3c 17 94 a2 bc
       -0.010386938 -0.020532845 0.02147763 -0.019846005
000300 17 24 4f 3d 65 6e 15 bd f4 a5 a2 3c 51 c2 ef 3b
       0.050571527 -0.036482234 0.019854523 0.0073168655
000310 0f c3 27 bd 13 46 a7 3c 84 42 0c 3d 83 18 47 bd
       -0.040957507 0.020419156 0.03424312 -0.04860736
000320 54 a6 2a 3b fb 2c 41 bc 00 e8 e8 3c 7d f7 1e bd
       0.002603908 -0.011790509 0.028430939 -0.038810242
000330 9d cb 03 3b c9 6f 48 3d 73 7d 00 3d 0f e4 dd bc
       0.0020110377 0.04893473 0.031369638 -0.027086286
000340 26 68 67 bd 01 b0 50 3d 13 7d 03 bc e8 d5 de bc
       -0.056495808 0.0509491 -0.0080254255 -0.027201608
000350 58 28 27 bd e9 ec 7b bc b3 c3 13 3d 51 ad 5b bc
       -0.04080996 -0.015376308 0.036075305 -0.013408021
000360 0f 58 cc bc ff fb 07 bd 2a f0 a1 3c e3 3a 40 3d
       -0.024944333 -0.033199307 0.01976784 0.04693116
000370 68 dc 57 3b ea b3 41 bd 8c 34 72 3d 53 84 00 3d
       0.003293777 -0.04729072 0.059132144 0.031376194
000380 60 e8 97 3c cd 76 cd bc b4 a8 81 3b b1 a3 1c 3d
       0.018543422 -0.025081063 0.0039568786 0.038242046
000390 a6 7c 41 bc 50 9d a8 3c 36 27 bb bc 6e 15 e0 3c
       -0.011809504 0.020582825 -0.022845846 0.027353968
0003a0 54 70 ec bc 85 b9 29 bd 29 c9 af bc 1b 17 7b 3c
       -0.028862156 -0.04143669 -0.021458225 0.015325333
0003b0 cb 3c 62 3c e6 a8 79 3d dd 14 1d 3c f5 78 34 3d
       0.0138084395 0.06095209 0.009587494 0.044060666
0003c0 a1 0e 2c 3d a4 12 2b 3d e2 43 17 bd 4b 7f 1e 3c
       0.04200614 0.041765824 -0.036929972 0.009673904
0003d0 18 c4 86 3c 7a 8b 33 3d fa dd d0 bc 0e a9 f5 bc
       0.016450927 0.043834187 -0.025496472 -0.029987838
0003e0 cc db e1 bc 38 57 47 bd bd 85 49 bd 46 70 2a bd
       -0.027570628 -0.048667163 -0.04919981 -0.04161098
0003f0 7c 69 9b 3c b5 2b b9 3c 0f 22 4e bd 14 b3 37 3d
       0.018971197 0.022603849 -0.05032545 0.044848517

network.6.bias f4 [64]
000000 60 af 33 3d 6c 62 eb 3d 07 4b b1 bc c3 37 7a 3c
       0.043868423 0.11493382 -0.021642221 0.015272084
000010 83 97 d9 bd 09 b3 e1 bd 2e bc 93 bd 1d 5b da 3d
       -0.10624602 -0.11020476 -0.07213627 0.1066191
000020 ed 14 a1 bd 60 b0 a2 bb 80 4d 9c 3c ec a2 1a be
       -0.078653194 -0.004964873 0.019079924 -0.15101212
000030 53 af b9 bd ae 39 25 3d a7 b4 c5 bd 1d 5b ce 3c
       -0.090666436 0.04033821 -0.09653597 0.02518993
000040 80 59 9f 3d 53 98 6f 3d a6 27 0d bd ab 54 85 bd
       0.07780743 0.058494877 -0.03446164 -0.0651029
000050 69 c0 2f bd 39 1e 4e 3e 5c b3 e3 3b 4e 69 ea bc
       -0.042908106 0.20128717 0.0069488715 -0.028614666
000060 88 4b 42 bd 48 d2 a0 bd b3 37 1e be 02 e0 b9 3c
       -0.047435313 -0.07852608 -0.15450935 0.022689823
000070 ff 51 21 3e 68 77 6c bd 3e 0e 88 bc 43 0b 3a be
       0.15753935 -0.057731062 -0.016608354 -0.18168359
000080 16 1c 45 bd d8 51 97 3c f4 81 35 3b 87 22 4f be
       -0.048122488 0.018471643 0.0027695866 -0.20228015
000090 27 5f c1 bd 70 b2 ac 3b f5 a0 bd bd 2d b5 98 3d
       -0.09441977 0.005270295 -0.09259216 0.074564315
0000a0 79 0c b9 3d 22 39 21 3d b8 21 87 3c ef bd ef 3d
       0.09035582 0.039361127 0.01649557 0.11706149
0000b0 7a a8 4f be ec 3c 5a bd a9 18 48 bd cb d7 3a bd
       -0.20279112 -0.053280756 -0.048851643 -0.045615952
0000c0 f7 cb f9 3c a5 36 9c 3d 1f eb 20 bc ef 90 93 3d
       0.030492766 0.0762761 -0.009821682 0.07205378
0000d0 d8 b5 af bc e5 e5 89 3d 90 08 72 3d 96 2c fe bd
       -0.021449015 0.06733302 0.059090197 -0.12410848
0000e0 5c 71 f6 3d e2 86 b3 bc f8 f0 01 bd 08 f8 3e 3d
       0.1203334 -0.021914903 -0.031723946 0.04662326
0000f0 6f 2b 1f 3e 8b d4 60 3c a2 b6 ee 3c f7 90 e8 bd
       0.15543912 0.013722549 0.02913982 -0.11355775
