compareAlgo/MFCC/model_seis.pth (torch_old, 124113 bytes, 34 tensors)

features.0.weight f4 [16, 1, 5]
0	0x3e90043d	0.28128234
1	0xbeaf69ec	-0.342605
2	0xbe5ef40d	-0.21772785
3	0xbd3908c0	-0.04517436
4	0x3eaf9fa5	0.34301487
5	0xbd0341c3	-0.032045137
6	0x3e93a98f	0.288403
7	0xbecd9e69	-0.4015992
8	0x3f0024ed	0.50056344
9	0xbec2b285	-0.38026825
10	0xbed3f0d1	-0.41394666
11	0x3f8d71d4	1.1050363
12	0xbf8a7569	-1.0817081
13	0x3f704797	0.9385924
14	0xbf1faa00	-0.62368774
15	0xbe876c9c	-0.2645005
16	0x3ec5dc69	0.38644722
17	0xbf304d20	-0.68867683
18	0x3f31d308	0.69462633
19	0xbe0a805b	-0.13525526
20	0x3dd88926	0.10573034
21	0xbe8c92b7	-0.27455685
22	0x3efd33f3	0.49453697
23	0xbe14db56	-0.14536795
24	0xbe287bca	-0.16453472
25	0xbea11a99	-0.31465605
26	0x3e6f9e59	0.23400249
27	0x3e1a4b1a	0.15067711
28	0xbec501aa	-0.38477832
29	0x3e8f1b31	0.27950433
30	0xbe2b5e8d	-0.16735287
31	0x3eb7b42a	0.35879642
32	0xbe038638	-0.12844169
33	0xbdf151be	-0.11783169
34	0x3beed11c	0.0072881114
35	0x3e63821d	0.22217603
36	0xbf34e42b	-0.70660657
37	0x3edc2274	0.42995036
38	0xbca1da85	-0.019757519
39	0x3d0da2f3	0.03457923
40	0x3e0b1539	0.13582315
41	0xbc9c6b87	-0.019094242
42	0x3cbd4770	0.023105353
43	0xbea32cb8	-0.31870055
44	0x3dacc795	0.08436505
45	0x3da7f1de	0.082004294
46	0x3c535597	0.012898824
47	0x3ed8ecf4	0.4236828
48	0xbe929da1	-0.28635886
49	0xbe045422	-0.12922719
50	0xbd84a840	-0.06477404
51	0xbf547426	-0.8298973
52	0x3fbb26fd	1.4621273
53	0xbf030bd1	-0.51189905
54	0xbe157c42	-0.14598182
55	0x3ef0dc2e	0.47042984
56	0xbe99d806	-0.30047625
57	0xbbc5ed78	-0.0060402714
58	0xbe9047b9	-0.2817972
59	0x3d9c0fe6	0.0762022
60	0xbc1ab4af	-0.009442492
61	0xbde55ee6	-0.11199741
62	0xbd8b09d1	-0.06788982
63	0x3e55264f	0.20815395
64	0xbe178303	-0.14796071
65	0x3e858387	0.2607691
66	0x3c8f0d40	0.017462373
67	0xbee6176b	-0.44939741
68	0x3f18ae31	0.59640795
69	0xbed45b6f	-0.41476008
70	0xbee011cc	-0.43763578
71	0x3ea1f0d8	0.31629062
72	0xbed99bd7	-0.4250171
73	0x3f2a74c0	0.66584396
74	0xbda5ea68	-0.0810135
75	0x3e0166d1	0.12636878
76	0xbe1a1d16	-0.15050158
77	0x3ea5cb24	0.32381546
78	0xbe316f8e	-0.17327711
79	0xbdcb48d7	-0.099260025

features.0.bias f4 [16]
0	0xb7005b31	-7.650627e-06
1	0xba823ef7	-0.0009936978
2	0xbbbdccc4	-0.005792232
3	0x3bbb649e	0.0057187816
4	0xbad45fa3	-0.0016202818
5	0xba40affd	-0.0007350443
6	0xbb942ae4	-0.0045217145
7	0xbaf2f536	-0.0018536213
8	0xbaa01a0b	-0.0012214793
9	0xbbae68ab	-0.005322536
10	0x3b84752b	0.004042288
11	0x3baba72a	0.0052384334
12	0x3b4e87d0	0.0031514056
13	0xba297646	-0.00064644625
14	0x3ba49c51	0.005023517
15	0xbbd45e77	-0.0064809876

features.1.weight f4 [16, 16, 1]
0	0x3dab4ea8	0.08364612
1	0x3df26374	0.118353754
2	0xbc49f963	-0.012327525
3	0x3d95768b	0.07298001
4	0x3d9a3371	0.07529343
5	0xbe8b26ce	-0.27178043
6	0xbe278267	-0.16358338
7	0x3e78ffa6	0.24316272
8	0xbd857f63	-0.06518438
9	0xbd9d3738	-0.07676548
10	0x3deec904	0.116594344
11	0x3d9e1f08	0.077207625
12	0x3e0c9b8d	0.13731213
13	0x3e8cf78d	0.27532616
14	0x3d2a4f1e	0.04157936
15	0x3cb5959b	0.022166064
16	0xbcc076dd	-0.023494178
17	0xbca2f2a9	-0.0198911
18	0xbcb491c6	-0.022042166
19	0xbd1c623f	-0.038179632
20	0x3c4dd7e7	0.012563682
21	0x3d74bac2	0.05974842
22	0x3d100568	0.035161406
23	0x3d8c63bc	0.0685496
24	0x3dada651	0.08478988
25	0xbd955d7e	-0.07293223
26	0x3e401c25	0.18760736
27	0x3ce9ea21	0.028554024
28	0x3de436a8	0.11143237
29	0xbd80a27e	-0.06280993
30	0xbd5e5504	-0.054280296
31	0xbc02a9de	-0.00797507
32	0xbbe50b79	-0.006989893
33	0x3d22cee0	0.039748073
34	0x3e1ff55b	0.1562094
35	0x3c3c6148	0.011497803
36	0xbd855456	-0.065102264
37	0x3dd02e82	0.10165121
38	0x3dfc3867	0.123154454
39	0x3da75f3c	0.081724614
40	0x3e7ebc1c	0.24876446
41	0xbe87c85d	-0.26520053
42	0x3e1f1c1e	0.1553807
43	0x3e0213ba	0.12702838
44	0x3e98f681	0.29875568
45	0xbd322cc6	-0.04349973
46	0xbde96b72	-0.11397447
47	0xbd9fabb4	-0.07796422
48	0x3c4a4fd3	0.012348133
49	0xbe3711a3	-0.17877822
50	0xbef5ab2d	-0.4798216
51	0xbe8ba95f	-0.27277657
52	0x3e1c7e5b	0.15282576
53	0x3d2288ac	0.03968112
54	0xbd80d5a9	-0.062907524
55	0x3e3a31e5	0.18183096
56	0x3d2da705	0.04239561
57	0x3df77aa2	0.12083937
58	0x3ee8b172	0.4544788
59	0x3d9adbf5	0.07561485
60	0xbcec656c	-0.028856955
61	0xbe22b4b3	-0.15889244
62	0xbe54e3b6	-0.2078999
63	0x3ddaaf19	0.106779285
64	0xbc7d8136	-0.015472701
65	0x3d97f763	0.07420232
66	0x3da88a05	0.0822945
67	0xbe0b289c	-0.1358971
68	0x3d32d166	0.04365673
69	0xbdbed11a	-0.09317227
70	0x3d44c75b	0.048041683
71	0xbd12280e	-0.03568273
72	0x3e2d853a	0.16945353
73	0x3d83ba89	0.06432063
74	0xbd87fbaa	-0.06639798
75	0x3e7d0717	0.24709736
76	0x3d43ece6	0.047833346
77	0x3e0d9c9f	0.13829277
78	0xbe940a98	-0.28914332
79	0x3d8dffb1	0.06933535
80	0xbe3842ce	-0.17994234
81	0x3dc4264b	0.09577616
82	0x3e1b1864	0.15146023
83	0xbd9b4107	-0.07580762
84	0x3de325ea	0.11091216
85	0xbda0cce5	-0.078515805
86	0x3c9e66f4	0.019336201
87	0xbdebe1f7	-0.11517709
88	0xbd078cae	-0.033093147
89	0x3e699f6f	0.22814725
90	0x3cd6c727	0.02621801
91	0xbbc3e355	-0.005978028
92	0xbdb17fd9	-0.08666963
93	0x3ddb315f	0.10702776
94	0xbdab4f24	-0.08364704
95	0x3ddd12a9	0.10794575
96	0xbe5b5f09	-0.21422972
97	0x3ddffbd7	0.109367065
98	0x3e54667d	0.20742221
99	0x3d984723	0.07435443
100	0x3dbc4e15	0.091945805
101	0xbccb2ee6	-0.024802636
102	0xbaafb168	-0.0013404312
103	0x3c5cf594	0.013486285
104	0xbdccb5a1	-0.099955805
105	0x3d5ca8ad	0.0538718
106	0x3e85eb89	0.26156262
107	0xbe3b2d52	-0.18279007
108	0x3d792516	0.060826384
109	0x3d4af7d5	0.049552757
110	0x3e194c8f	0.14970611
111	0x3d0256bd	0.031821
112	0xbd825ddb	-0.06365558
113	0xbd320000	-0.04345703
114	0xbd0b7060	-0.034042716
115	0x3d045160	0.032304168
116	0x3c44d297	0.012013099
117	0x3d772f27	0.060347702
118	0xbc59ca94	-0.013292927
119	0xbd86483f	-0.065567486
120	0xbe09c727	-0.13454877
121	0x3dbd0c18	0.09230822
122	0x3c8fb00d	0.017540002
123	0xbe34e3c6	-0.17665014
124	0xbe0012e9	-0.12507214
125	0xbdb91edb	-0.09039088
126	0x3e15c0c5	0.14624317
127	0x3bab9e3e	0.00523737
128	0x3c9a421b	0.01883035
129	0x3e1d2747	0.15347014
130	0x3ecbfd36	0.39841622
131	0x3e74262b	0.23842685
132	0xbe0eb2d8	-0.13935411
133	0xbd4c83c4	-0.04993035
134	0x3d3485d7	0.044072952
135	0xbe0e6eaa	-0.13909402
136	0xbced781b	-0.028987935
137	0xbdfd2f7c	-0.123625726
138	0xbed2dfc5	-0.41186348
139	0xbd2981de	-0.041383617
140	0x3d0f9fcd	0.035064507
141	0x3e1bea9d	0.15226217
142	0x3e2f0b00	0.1709404
143	0xbdc7aae7	-0.09749394
144	0x3c69576b	0.0142420335
145	0xbcffa5de	-0.031207021
146	0xbe24e6cd	-0.16103669
147	0xbcb95a1d	-0.022625977
148	0x3d94ffcc	0.07275352
149	0xbe03a014	-0.12854034
150	0xbe089ff4	-0.13342267
151	0xbdb09c81	-0.08623601
152	0xbe8112a6	-0.2520954
153	0x3e93c1b0	0.2885871
154	0xbe3a02ba	-0.18165103
155	0xbdda0e1d	-0.10647223
156	0xbea1846b	-0.3154634
157	0x3d91d6d0	0.0712105
158	0x3dbcd784	0.09220794
159	0x3dbaa460	0.09113383
160	0x3dee3e7a	0.1163301
161	0xbd9c9cc6	-0.0764709
162	0xbe12170e	-0.14266607
163	0x3e1d0210	0.15332818
164	0xbd88ddaa	-0.06682904
165	0x3d41d932	0.047326274
166	0xbdaac801	-0.08338929
167	0x3e137354	0.14399463
168	0xbdff8e52	-0.12478317
169	0xbe36ac73	-0.17839222
170	0x3d9e694e	0.07734929
171	0xbe29bfe6	-0.1657711
172	0x3d2b140a	0.041767158
173	0xbdc3a6fc	-0.09553334
174	0x3e8858ff	0.266304
175	0xbdca3ae4	-0.09874514
176	0x3db97cc1	0.09056998
177	0xbdc65ff5	-0.09686271
178	0xbd9bebaf	-0.076133125
179	0x3d260f97	0.04054221
180	0xbdd9efd0	-0.10641444
181	0x3e130a67	0.14359437
182	0x3d335c08	0.04378894
183	0xbc803890	-0.015651971
184	0x3d173611	0.036916796
185	0xbe044501	-0.12916948
186	0xbda2f56a	-0.07956965
187	0xbd0152ac	-0.031572983
188	0x3c09050d	0.008363021
189	0xbe232790	-0.1593306
190	0x3d6c6aa7	0.0577189
191	0xbdae20c1	-0.08502341
192	0xbe145d30	-0.14488673
193	0xbd9f34f2	-0.077737704
194	0x3da87261	0.08224941
195	0xbdac7050	-0.084198594
196	0xbd36299e	-0.044473283
197	0x3e89e259	0.26930502
198	0x3e3f78b6	0.18698391
199	0xbe528ffc	-0.20562738
200	0x3dea999b	0.11455079
201	0x3d477b30	0.048701465
202	0x3c9d58b6	0.01920734
203	0xbd7a808b	-0.061157744
204	0xbd3c94ed	-0.046040464
205	0xbe82c208	-0.2553866
206	0xbd9a8993	-0.075457714
207	0xbc50e6c0	-0.012750328
208	0xbe0c96b5	-0.13729365
209	0x3e19e73f	0.1502962
210	0x3ec54ce1	0.38535216
211	0x3e3aab19	0.18229331
212	0xbd1e10d2	-0.03859026
213	0xbc3fe718	-0.011712812
214	0x3d4ef893	0.050530028
215	0xbdf9974b	-0.1218706
216	0xbd962039	-0.07330365
217	0xbcb26a69	-0.021779256
218	0xbdf9e6a4	-0.12202194
219	0xbe18f13f	-0.14935778
220	0x3d01a68d	0.031652976
221	0x3dbc4458	0.09192723
222	0x3e42c329	0.1901976
223	0xbd2545a3	-0.040349614
224	0x3e83d319	0.25746992
225	0xbd9b522c	-0.075840324
226	0xbe71773c	-0.2358064
227	0xbc8c4cdb	-0.017126491
228	0xbd8c05ce	-0.06837045
229	0xbd92646f	-0.071480624
230	0xbda13003	-0.07870486
231	0x3de10d92	0.109889165
232	0x3d39a33d	0.04532169
233	0xbde48b5c	-0.11159393
234	0xbe3aff0a	-0.18261352
235	0x3e2fcfc9	0.17169107
236	0x3acb502f	0.0015511567
237	0x3d1c562b	0.038168114
238	0xbd9dcec9	-0.07705457
239	0xbd1edb2a	-0.03878323
240	0x3d91ab0e	0.07112704
241	0xbd7e0e0c	-0.062025115
242	0xbd41e291	-0.04733521
243	0xbd384be2	-0.044994242
244	0xbd8d3b3f	-0.06896066
245	0x3d6409df	0.055673476
246	0x3d2e76ec	0.04259388
247	0xbe141057	-0.14459358
248	0x3cec07c4	0.028812297
249	0x3d7b1713	0.061301302
250	0xbe92de80	-0.2868538
251	0x3d735b5f	0.05941331
252	0xbe0ff97d	-0.14060016
253	0xbd6b74ac	-0.057484314
254	0xbd993b08	-0.074819624
255	0xbbe99724	-0.007128613

features.1.bias f4 [16]
0	0x3b5886f4	0.0033039423
1	0x3915ec6a	0.00014297818
2	0xbb7577c9	-0.003745543
3	0xbb53e953	-0.0032335117
4	0x3b54dcd8	0.0032480266
5	0xbb767964	-0.0037608976
6	0x3a0b99b3	0.0005325332
7	0x3ac9e150	0.0015402231
8	0x3b5ce09f	0.003370322
9	0xbb410139	-0.0029450192
10	0xbb00206b	-0.0019550573
11	0x3b5cc5d3	0.0033687248
12	0xbac17dc2	-0.001476221
13	0x3b767794	0.0037607895
14	0xbb2c39a2	-0.002627947
15	0xbb1cdfba	-0.0023937062

features.2.weight f4 [16]
0	0x3e93fe8b	0.28905138
1	0x3e897646	0.26848048
2	0x3eacde21	0.3376322
3	0x3ef8cd71	0.4859424
4	0x3ebcadba	0.36851293
5	0x3eb00694	0.3438002
6	0x3ea470ad	0.32117215
7	0x3e8284d0	0.25491953
8	0x3ee8e909	0.45490292
9	0x3eb392b1	0.35072854
10	0x3ec4452d	0.38334027
11	0x3e955b90	0.2917142
12	0x3e87e232	0.2653976
13	0x3eca2c72	0.39487034
14	0x3ea47720	0.32122135
15	0x3e8595b8	0.2609079

features.2.bias f4 [16]
0	0x3e325209	0.17414106
1	0x3d8bffcf	0.06835901
2	0x3e6d86cf	0.23195957
3	0xbc464f83	-0.012103918
4	0x3f106fbf	0.5642051
5	0x3ee5b5f6	0.44865388
6	0x3e459a94	0.19297248
7	0x3e963066	0.293338
8	0xbc09d074	-0.0084115155
9	0x3e700a27	0.23441373
10	0x3f1c391e	0.61024654
11	0x3e7a34ef	0.24434255
12	0x3e7c1933	0.24618988
13	0xbc99ad9e	-0.018759545
14	0x3e5eda0b	0.21762864
15	0x3ea21d98	0.31663203

features.2.running_mean f4 [16]
0	0x3bbba036	0.0057258857
1	0x3a8cd342	0.0010744112
2	0xbb029772	-0.0019926694
3	0xbb1ebdce	-0.002422202
4	0x39d13f2c	0.00039910653
5	0xbbfce09f	-0.0077172066
6	0x3922df4f	0.00015532713
7	0x3aa646e4	0.0012685922
8	0x3b428b92	0.0029685241
9	0xbba5f54f	-0.0050646435
10	0x3b328518	0.0027239975
11	0x3ba91649	0.0051601273
12	0xbb7d4d52	-0.0038650823
13	0x3b32a1de	0.0027257125
14	0xb9e7b000	-0.00044190884
15	0xbb86ccba	-0.004113761

features.2.running_var f4 [16]
0	0x3a714c20	0.0009204764
1	0x3a2b2b44	0.00065295794
2	0x3b0e8dee	0.0021752077
3	0x3bf87c62	0.007583187
4	0x3b6b87f9	0.00359392
5	0x3b19ac49	0.0023448637
6	0x3af2a0b1	0.0018511025
7	0x3a89c966	0.0010512292
8	0x3bbbba5f	0.0057290043
9	0x3b1db899	0.0024066328
10	0x3b83b1ce	0.0040189987
11	0x3a9c08c3	0.0011904467
12	0x3a6357ac	0.0008672427
13	0x3b50a6ff	0.0031837819
14	0x3ae3b406	0.0017372377
15	0x3a85c25c	0.0010205018

features.5.weight f4 [32, 16, 5]
0	0x3d407905	0.046990413
1	0x3dde0eda	0.108426765
2	0xbd6ef6b5	-0.058340747
3	0xbde2eac8	-0.11079937
4	0xbcce8f39	-0.025214778
5	0xbd478187	-0.04870751
6	0xbcf84b3c	-0.030309312
7	0xbcafc611	-0.02145675
8	0x3c8ae15a	0.01695316
9	0xba287f81	-0.0006427691
10	0xbbfcf63f	-0.0077197845
11	0xbc90698a	-0.01762845
12	0x3d14c25a	0.03631816
13	0x3d7e6356	0.062106453
14	0xbc87b086	-0.016563665
15	0x3e0b534c	0.13605994
16	0x3d057d51	0.032590214
17	0xbde06f01	-0.10958672
18	0xbe2d35fd	-0.16915126
19	0xbe409ad4	-0.18809062
20	0x3e3d9049	0.18512072
21	0x3d868cb6	0.06569807
22	0x3d58a040	0.0528872
23	0xbd2095b6	-0.039205275
24	0x3e31222b	0.1729819
25	0x3dc00d75	0.09377567
26	0x3d7243f8	0.05914685
27	0xbc54fcfe	-0.012999771
28	0x3d41853c	0.047246203
29	0x3d5ccbb7	0.053905215
30	0x3d251492	0.04030282
31	0x3e0613a5	0.13093431
32	0xbe4f2e61	-0.20232536
33	0x3da6b5ae	0.081401214
34	0x3c2d1e0f	0.010566249
35	0xbd1d3eb3	-0.038389873
36	0xbd292c95	-0.041302282
37	0xbd7d4b79	-0.061839554
38	0xbc8f9b55	-0.017530123
39	0xbc7d4102	-0.015457394
40	0x3e11011c	0.1416058
41	0x3d4e2149	0.050324712
42	0xbbb16ebc	-0.005414812
43	0xbe1f7881	-0.15573312
44	0xbdbf687e	-0.09346102
45	0xbdafbc02	-0.085807815
46	0xbdbe9ffb	-0.093078576
47	0xbda9cde9	-0.08291227
48	0xbdbeac8c	-0.093102545
49	0xbdbd7fc1	-0.09252883
50	0x3c4fd79b	0.012685682
51	0x3e13f6e8	0.14449656
52	0x3c294b5f	0.010332911
53	0x3d9c1edb	0.07623073
54	0x3da4c15e	0.08044694
55	0xbd1c8761	-0.038215045
56	0x3d0e06fb	0.034674626
57	0x3d8032d9	0.062596984
58	0x3d0beb62	0.034160025
59	0xbd26ec9e	-0.040753
60	0x3e11ece5	0.14250524
61	0x3d3ebd06	0.046566986
62	0xbc9def09	-0.01927902
63	0xbdea80a1	-0.11450315
64	0x3d0df391	0.03465611
65	0xbd651aca	-0.05593375
66	0xbe076676	-0.1322268
67	0xbdf76109	-0.12079055
68	0xbcd3a7ff	-0.025836943
69	0xbdedeb8e	-0.11617194
70	0x3d3dddab	0.046353977
71	0xbc87d8d4	-0.016582884
72	0xbd13cfbb	-0.03608678
73	0xbe1688f0	-0.14700675
74	0x3e0a21e7	0.13489495
75	0x3dff061c	0.12452337
76	0x3c55e3ba	0.0130547825
77	0xbd2b2332	-0.04178161
78	0xbdfe5acc	-0.12419662
79	0x3d325b6f	0.04354423
80	0xbd38541f	-0.0450021
81	0xbc923fb4	-0.017852642
82	0x3ad3457a	0.0016118728
83	0xbd2f0512	-0.042729445
84	0xbd9d66d9	-0.07685632
85	0xbbc523fd	-0.006016253
86	0xbc757b00	-0.014982939
87	0xbd0b0b27	-0.033946183
88	0x3c23e3e0	0.01000306
89	0x3cd3073f	0.025760291
90	0xbd717bac	-0.058955833
91	0x3bc8c5b2	0.0061270827
92	0x3c971e9f	0.018447218
93	0xbd49006c	-0.049072668
94	0xba8133ab	-0.0009857317
95	0x3d8289ab	0.06373914
96	0x3da20b15	0.0791227
97	0x3c8f243e	0.017473336
98	0xbaaab0fe	-0.0013022718
99	0xbc3c3e1f	-0.01148942
100	0xbcd56d49	-0.026053088
101	0xbcdb46bb	-0.026767125
102	0x3e07366b	0.13204353
103	0x3d873bfc	0.06603238
104	0xbe39bf95	-0.18139489
105	0xbd1b8d7a	-0.03797672
106	0x3ca2a27c	0.01985287
107	0x3df41a7a	0.119191125
108	0xbdabe370	-0.0839299
109	0xbe237650	-0.15963101
110	0xbd97704d	-0.073944665
111	0x3d31199b	0.04323731
112	0x3c9390e4	0.018013425
113	0xbdeba574	-0.11506167
114	0x3cd034bc	0.02541577
115	0x3be51d99	0.0069920537
116	0x3d3ce37f	0.046115395
117	0xbdbb763c	-0.09153411
118	0xbde759d7	-0.112964325
119	0x3dd03cf1	0.10167874
120	0x3cc188f9	0.023624884
121	0xbcf78057	-0.030212564
122	0x3b173d1a	0.002307719
123	0xbce699cc	-0.028149508
124	0xbd25fc9e	-0.040524118
125	0x3d20d725	0.039267678
126	0xbd08c630	-0.03339213
127	0xbd194784	-0.03742172
128	0xbcc58ee7	-0.024115993
129	0x3c893736	0.01674996
130	0xb9d032e5	-0.0003971077
131	0x3db29d56	0.08721416
132	0xbe102b9d	-0.14079137
133	0xbc38e9a1	-0.01128617
134	0x3e2f43bf	0.17115687
135	0x3c551e66	0.013007736
136	0x3c64c827	0.013963736
137	0xbe09d9b5	-0.13461955
138	0xbc23f264	-0.010006521
139	0x3ddc7031	0.10763586
140	0x3c24d6fd	0.010061023
141	0xbc7570a0	-0.014980465
142	0xbcbb42eb	-0.022859057
143	0xbd9bcbe8	-0.076072514
144	0xbcbd8680	-0.023135424
145	0x3d4cf74f	0.05004054
146	0x3dc20a6f	0.09474646
147	0x3d1473a4	0.036243096
148	0x3d6f0bb5	0.058360774
149	0x3d3c7438	0.046009272
150	0x3d655d1c	0.055997
151	0xbd39cd4e	-0.04536181
152	0xbcd5855c	-0.026064567
153	0x3dcba2d4	0.099431664
154	0xbd2400c6	-0.0400398
155	0x3c5a2aa8	0.013315834
156	0xbd46c9eb	-0.048532408
157	0x3c05c65b	0.008164967
158	0x3c91de6d	0.017806256
159	0xbd23715c	-0.03990303
160	0xbde7cd72	-0.113184825
161	0xbdb2a6e5	-0.08723239
162	0xbd32d87e	-0.043663494
163	0xbd6dd80a	-0.05806736
164	0xbde06c56	-0.109581634
165	0x3c58a250	0.013222292
166	0xbc733e47	-0.014846391
167	0xbd734acd	-0.059397507
168	0xbda18ff5	-0.07888786
169	0xbd7e4970	-0.062081754
170	0x3d0e1708	0.034689933
171	0xbcbd61bd	-0.023117894
172	0xbd7aa241	-0.061189894
173	0xbd59536b	-0.05305807
174	0xbd0faae7	-0.035075095
175	0xbceb8891	-0.028751643
176	0x3cebffaa	0.028808434
177	0x3c1500c8	0.009094425
178	0x3c8d5e0e	0.017256763
179	0xb9fe6c9f	-0.00048527584
180	0x3d7ec0af	0.062195476
181	0x3de86e92	0.113492146
182	0x3e138706	0.14406976
183	0xbd82bc3c	-0.06383559
184	0x3cd9cbde	0.02658647
185	0xbb5d40a3	-0.003376045
186	0x3db84847	0.08998161
187	0x3d6a1ea6	0.057158135
188	0xbdbcac90	-0.09212601
189	0x3d5d509b	0.05403195
190	0xbdd1f5b3	-0.102519415
191	0x3d2001b8	0.03906414
192	0x3d127edc	0.035765514
193	0x3ab09fee	0.0013475397
194	0xbc5f56fe	-0.01363158
195	0xbc667d7e	-0.014068006
196	0xbd7db066	-0.061935805
197	0xbdb14dd3	-0.08657422
198	0x3d560f3b	0.05226062
199	0x3dde7c5c	0.108635634
200	0xbdaf6c0d	-0.08565531
201	0xbdbff233	-0.09372368
202	0xbd89e7c4	-0.06733659
203	0xbcdcf5d2	-0.026972685
204	0xbd938a01	-0.072040565
205	0x3d84c2ee	0.064824924
206	0x3cb8a27d	0.022538418
207	0x3d2666ed	0.0406255
208	0x3d0b7bfe	0.034053795
209	0x3dad46e9	0.08460791
210	0xbb964971	-0.0045863916
211	0x3db9626d	0.09051976
212	0x3dbb3f1a	0.09142895
213	0x3e86dc8f	0.26340148
214	0x3d0b437b	0.0339999
215	0x3b3133fa	0.0027039037
216	0xbd282a9c	-0.04105626
217	0xbdabd1ad	-0.08389602
218	0x3d1e089e	0.038582437
219	0xbc6a8667	-0.014314271
220	0xbd9c8957	-0.07643383
221	0xbd2a9df7	-0.041654553
222	0x3d02ec7f	0.03196382
223	0xbd9361ee	-0.07196413
224	0xbdc8eb66	-0.09810524
225	0x3d8b484e	0.068009004
226	0x3e001ab4	0.12510186
227	0x3dd48caf	0.10378396
228	0x3e056f29	0.13030685
229	0x3da788e5	0.081804074
230	0xbd3530dc	-0.04423605
231	0x3c74120f	0.014896884
232	0x3dcc2e3d	0.09969757
233	0x3d490190	0.049073756
234	0xbdae0b12	-0.08498205
235	0xbdde30f5	-0.108491816
236	0xbd5f9dc8	-0.05459383
237	0x3d7a933b	0.061175566
238	0xbd533e30	-0.05157298
239	0xbda2f0d9	-0.07956094
240	0x3ca939d5	0.02065746
241	0xbc2caa5e	-0.010538666
242	0xbd8a5a71	-0.067555316
243	0x3d021b84	0.031764522
244	0x3bd46005	0.006481173
245	0xbcc6942f	-0.024240581
246	0x3d5e6f76	0.054305516
247	0xbc1bde26	-0.0095134135
248	0x3cccaf21	0.024985852
249	0xbd0b2c3e	-0.03397774
250	0xbd75e2e5	-0.060030837
251	0xbb8d23f9	-0.004307267
252	0xbc167339	-0.009182745
253	0x3c54efd0	0.012996629
254	0x3c200950	0.009767845
255	0x3cf58f6f	0.029975621

features.5.bias f4 [32]
0	0xba50715c	-0.0007951462
1	0xbabf1a50	-0.0014579985
2	0x3ab1fbed	0.0013579108
3	0x38a8cbc4	8.0488186e-05
4	0xba94b0ce	-0.0011344196
5	0x3ae8fa87	0.0017774858
6	0xba72239d	-0.0009236874
7	0xb99f792b	-0.0003041712
8	0xbae86b38	-0.0017732149
9	0xb9b64e10	-0.00034771906
10	0xba714e40	-0.00092050806
11	0xbaac024b	-0.0013123242
12	0xbac6e6ad	-0.0015174948
13	0xbab40072	-0.0013733043
14	0xb9c4204b	-0.00037408093
15	0x3a3256d4	0.00068030995
16	0xba8fea1f	-0.0010979808
17	0x3a46db45	0.00075857743
18	0x399596d8	0.00028531882
19	0xba76f351	-0.0009420412
20	0xba2a2936	-0.0006491126
21	0x3945dbd2	0.00018869273
22	0xbae6318c	-0.0017562374
23	0x3a1e6891	0.0006042803
24	0x3a6969c2	0.0008904004
25	0xba93d79a	-0.0011279464
26	0x38915ee3	6.931813e-05
27	0x3ae964d6	0.0017806541
28	0x397527e3	0.0002337988
29	0xbab8beb3	-0.0014094919
30	0x39cc5335	0.00038971906
31	0x39e89672	0.0004436258

features.6.weight f4 [32, 32, 1]
0	0xbe41bd73	-0.18919925
1	0x3e318409	0.17335524
2	0xbcd31cd3	-0.02577058
3	0x3e5a428a	0.21314445
4	0xbd716583	-0.0589347
5	0xbd6b39d3	-0.057428192
6	0x3d7de1fe	0.0619831
7	0x3e3769c6	0.17911443
8	0xbd8fd4b7	-0.07022994
9	0x3c09f38a	0.008419881
10	0x3d0511bf	0.032487627
11	0x3d3e7f22	0.046507962
12	0xbe04fb9f	-0.12986611
13	0x3d50ebd6	0.05100616
14	0xbce1aa5a	-0.02754705
15	0x3e8cd9bc	0.27509868
16	0x3cff26b1	0.03114638
17	0xbd7d7cec	-0.061886713
18	0xbd117169	-0.035508547
19	0x3d95a6c1	0.073071964
20	0x3d366c5c	0.044536933
21	0x3d9e15ad	0.07718978
22	0x3db651e3	0.089023374
23	0x3e2aa6f2	0.16665247
24	0x3d726de0	0.059186816
25	0x3e6ad5fb	0.2293319
26	0xbe07b798	-0.13253629
27	0xbdd3b355	-0.10336939
28	0x3e50b946	0.20383176
29	0x3a490db5	0.0007669584
30	0x3dbb11e2	0.0913427
31	0x3d20311a	0.039109327
32	0xbd7594c9	-0.059956346
33	0x3e84a33f	0.25905797
34	0xbd780d3a	-0.06055949
35	0xbe39414e	-0.18091318
36	0xbdba3353	-0.090918206
37	0xbdb9998c	-0.0906249
38	0x3e1c72fa	0.15278235
39	0xbcbd52fc	-0.02311086
40	0x3b9dd9a3	0.004817204
41	0xbdb0f787	-0.08640962
42	0xbe93e18a	-0.2888301
43	0x3de565fe	0.11201094
44	0xbde13a22	-0.10997416
45	0xbd1772e2	-0.036974795
46	0xbcf74c4d	-0.03018775
47	0x3dd91d73	0.1060132
48	0xbd5f2ad3	-0.0544842
49	0x3d83a403	0.06427767
50	0xbde4ba9d	-0.11168406
51	0xbd9efcea	-0.07763083
52	0xbd186790	-0.03720814
53	0xbd8df1fc	-0.069309205
54	0xbcd8283a	-0.026386369
55	0x3d1759a9	0.03695074
56	0xbd9c4086	-0.07629494
57	0xbda0d7a9	-0.07853634
58	0x3e02a78c	0.12759227
59	0xbd93a31e	-0.072088465
60	0xbd0db6be	-0.034598105
61	0x3e97ce89	0.2964976
62	0x3e1026ef	0.14077352
63	0xbc3aba1d	-0.011396912
64	0xbdb2f8fe	-0.08738898
65	0x3d36cc39	0.044628356
66	0x3db8ae7a	0.09017654
67	0x3d1bed00	0.038067818
68	0xbd5ea33a	-0.054354884
69	0x3dce890a	0.10084732
70	0xbd820dc1	-0.063502796
71	0x3e07f9c5	0.13278873
72	0xbd58f06e	-0.052963667
73	0x3dbedb66	0.09319191
74	0x3db3476a	0.087538555
75	0xbe0b4f98	-0.13604581
76	0xbe6819e6	-0.2266613
77	0x3de4e042	0.11175586
78	0xbd99de9b	-0.07513162
79	0xbd0de268	-0.034639746
80	0xbd6b36b9	-0.057425234
81	0xbd80571e	-0.06266616
82	0x3d243ef0	0.040099084
83	0xbdbf3be5	-0.09337596
84	0x3d3ba43f	0.045810934
85	0xbd068207	-0.032838847
86	0xbcfb15ff	-0.030650137
87	0x3d9fd2e7	0.07803898
88	0xbe0bafa9	-0.13641228
89	0xbdd574f1	-0.104226954
90	0x3e0ca1b1	0.13733555
91	0x3d13d579	0.036092255
92	0x3dc120ce	0.09430085
93	0x3dcaaefa	0.098966554
94	0xbd7b388a	-0.061333217
95	0xbd383f9f	-0.04498255
96	0x3d021355	0.031756718
97	0x3bbec4a6	0.005821782
98	0x3ddb5987	0.10710435
99	0x3cfad9ec	0.030621491
100	0x3d8042ae	0.06262718
101	0xbdeb6f32	-0.11495818
102	0xbe16a844	-0.14712626
103	0x3de85ba1	0.11345602
104	0xbd99dd25	-0.07512883
105	0x3ce2ee59	0.027701544
106	0xbdc4d5e4	-0.09611109
107	0x3d641b55	0.05569013
108	0xbe1056b2	-0.14095572
109	0xbddc5c17	-0.10759752
110	0xbcd9f4a8	-0.026605919
111	0xbdadb765	-0.08482245
112	0xbc972db0	-0.018454403
113	0xbd8014a8	-0.0625394
114	0x3e41a4f9	0.18910588
115	0x3e680da2	0.2266145
116	0x3dcefe91	0.101071484
117	0xbe5062be	-0.20350167
118	0x3e22825e	0.15870044
119	0xbde1623d	-0.110050656
120	0x3def0953	0.116717
121	0x3cc29ff2	0.023757908
122	0x3d90f85f	0.07078623
123	0xbd3d2ebc	-0.046187147
124	0xbd96f26c	-0.07370457
125	0xbda791a4	-0.081820756
126	0xbc143cd3	-0.009047705
127	0x3e705492	0.23469761
128	0xbbb21e49	-0.005435739
129	0x3dd30f71	0.103056796
130	0x3da1c6ab	0.07899221
131	0x3e829583	0.25504693
132	0xbcf2766e	-0.029597487
133	0xbd842c3d	-0.0645375
134	0x3e3c8a6c	0.18412179
135	0x3e69dca9	0.22838081
136	0xbc1eadd3	-0.009684998
137	0xbbc87bf1	-0.0061182906
138	0x3e86c509	0.263222
139	0x3e0ea1e9	0.13928951
140	0xbe1b0829	-0.15139832
141	0xbde79e25	-0.113094606
142	0xbd65442d	-0.05597322
143	0x3e896e85	0.26842132
144	0x3d4b5de4	0.049650088
145	0xbe2ad7a5	-0.16683824
146	0x3da31f1e	0.079649195
147	0x3e3d28e1	0.18472625
148	0xbda16859	-0.07881231
149	0x3dd9a4d6	0.10627143
150	0xbde34187	-0.11096483
151	0x3de6ff2b	0.11279138
152	0xbd19b900	-0.037529945
153	0x3e0c9dc8	0.13732064
154	0xbdaf492a	-0.08558877
155	0x3c7352e7	0.014851308
156	0x3e15725b	0.14594404
157	0xbe8781ed	-0.26466313
158	0xbd8d42b1	-0.06897486
159	0xbac25642	-0.0014826732
160	0xbdadab1f	-0.084799044
161	0xbdbcd0c0	-0.092195034
162	0xbdc27243	-0.0949445
163	0xbe2d28fd	-0.16910167
164	0x3da47a52	0.08031143
165	0xbd8aa6f6	-0.067701265
166	0x3dc2e5fc	0.09516522
167	0xbdc007c2	-0.0937648
168	0x3ddf6062	0.109070554
169	0xbde473ed	-0.111549236
170	0xbd59b4a0	-0.053150773
171	0x3e256334	0.16151124
172	0x3e98617f	0.29761884
173	0xbe36f233	-0.17865829
174	0x3dabdcad	0.083917
175	0x3d96f481	0.07370854
176	0x3e40ac18	0.18815649
177	0xbd2104fe	-0.0393114
178	0xbcd52edc	-0.02602332
179	0xbd92261f	-0.07136177
180	0x3d8c430c	0.06848726
181	0xbd79ed83	-0.061017524
182	0xbbd6b4e4	-0.0065523256
183	0x3deeb1c7	0.11655002
184	0x3d2ba9d8	0.041910022
185	0x3d905f94	0.0704948
186	0xbe1b0aa5	-0.1514078
187	0xbe0060d8	-0.12536943
188	0x3d779e0f	0.06045347
189	0xbdf40d9d	-0.11916659
190	0xbc6e038c	-0.014527213
191	0x3dd220fb	0.10260197
192	0x3c9db638	0.019251928
193	0x3d3c84da	0.046025135
194	0x3daefb15	0.08543984
195	0xbc3d01e4	-0.011536095
196	0x3e335aa5	0.17515047
197	0xbd1a2cb1	-0.037640277
198	0x3ea1ba2d	0.31587353
199	0xbdb76011	-0.0895387
200	0xbd3e6058	-0.0464786
201	0xbe2b4a2c	-0.16727513
202	0x3dc7d0db	0.09756633
203	0xbdc17d84	-0.09447768
204	0x3d98bc8f	0.0745784
205	0x3e4acf9c	0.19805759
206	0xbe7d45fb	-0.24733727
207	0x3d60875a	0.05481658
208	0xbe9ab14c	-0.30213392
209	0xbe1d2db1	-0.15349461
210	0x3e2e1944	0.17001826
211	0xbe12664b	-0.14296834
212	0x3d0d2119	0.034455393
213	0xbe0a20d4	-0.13489085
214	0x3e83c21f	0.2573404
215	0x3e0cac89	0.13737692
216	0xbd96f674	-0.07371226
217	0xbb30583a	-0.0026908056
218	0x3e1b03bc	0.15138143
219	0xbe6d9277	-0.23200403
220	0xbb084953	-0.0020795658
221	0x3d2fd166	0.042924307
222	0xbc33a86a	-0.010965446
223	0x3d5f0fd0	0.05445844
224	0x3d80cc21	0.062889345
225	0xbdc10b0c	-0.09425935
226	0xbd04b8b7	-0.03240272
227	0xbd04f442	-0.032459505
228	0xbd68151a	-0.05666075
229	0xba9bb05a	-0.0011878118
230	0x3dba5bf6	0.090995714
231	0xbd7d8fd4	-0.061904743
232	0xbc090ee9	-0.008365371
233	0xbdc33ab9	-0.09532685
234	0x3d466322	0.048434384
235	0x3e0f13eb	0.13972442
236	0xbdcc8fd2	-0.09988369
237	0xbdf06642	-0.11738254
238	0xbb6dbbd9	-0.0036275296
239	0xbd34348b	-0.04399542
240	0xbdfd5a3e	-0.12370728
241	0xbc37f40e	-0.011227621
242	0xbce969e8	-0.028492883
243	0x3dd943a6	0.10608606
244	0x3c8b6da2	0.01702005
245	0x3cee161a	0.029063273
246	0xbea0ad28	-0.31382108
247	0xbe41a868	-0.18911898
248	0x3d976367	0.07392006
249	0xbd81d402	-0.063392654
250	0xbcc8e1cb	-0.024521729
251	0xbe5e551a	-0.21712151
252	0x3d655c8a	0.055996455
253	0x3d424062	0.04742468
254	0x3d44a7aa	0.04801146
255	0xbd8f9940	-0.07011652

features.6.bias f4 [32]
0	0x3ac6dff2	0.0015172942
1	0x39cae443	0.0003869851
2	0x3b030128	0.0019989703
3	0x3a97e158	0.0011587543
4	0x39980fc1	0.00029003437
5	0x3938dc34	0.0001762964
6	0x3a601789	0.0008548429
7	0xbb2cf5be	-0.002639159
8	0x3add1bfe	0.0016869304
9	0xbb0c6a53	-0.002142568
10	0x3b18832b	0.0023271542
11	0xbaa073d5	-0.0012241552
12	0xba451ef7	-0.0007519568
13	0x3a570815	0.00082028034
14	0xba66fdd1	-0.00088116253
15	0xba23ea5b	-0.0006252878
16	0xbb2042ba	-0.0024453835
17	0x3b31cd0f	0.002713028
18	0x3a23cbf4	0.0006248348
19	0xbb2a7ca5	-0.0026014235
20	0xba18d6a7	-0.00058303255
21	0x3af0a965	0.001836103
22	0x39ebf72a	0.00045006844
23	0xba9c371b	-0.0011918278
24	0xbaa6aea2	-0.001271684
25	0xbb202229	-0.0024434424
26	0xba646645	-0.0008712749
27	0xb9d2b1e1	-0.0004018685
28	0x3ac06cc8	0.0014680857
29	0xbb35a1ed	-0.0027714923
30	0xbb2edb77	-0.0026681104
31	0x3b23338b	0.0024902548

features.7.weight f4 [32]
0	0x3e5a7dc1	0.21337034
1	0x3e6546d1	0.22390296
2	0x3e56cef8	0.2097739
3	0x3e5e89fd	0.21732326
4	0xbe99bbb0	-0.30026007
5	0x3e52362a	0.20528474
6	0x3f177595	0.5916379
7	0x3e3ecad5	0.18632062
8	0x3e4bde86	0.19909105
9	0x3e90128f	0.2813916
10	0x3efebbfa	0.4975279
11	0x3ed7d2bf	0.42152974
12	0x3f03bd41	0.51460654
13	0x3e7f15ed	0.24910708
14	0x3ecbf7c9	0.39837483
15	0x3ead40da	0.3383854
16	0x3e8247b1	0.2544532
17	0x3eeafc81	0.4589577
18	0x3ea6793d	0.32514372
19	0x3e6e03a1	0.23243572
20	0x3ea8f8c2	0.33002287
21	0x3f2532dd	0.64530736
22	0x3e671a95	0.22568734
23	0x3ed09785	0.407406
24	0x3e6748eb	0.2258641
25	0x3e60eae2	0.219646
26	0x3ea652f1	0.32485154
27	0x3e812852	0.25226074
28	0x3e907ae6	0.28218764
29	0x3e9678a6	0.29388922
30	0x3e9329e0	0.28742886
31	0x3e865f65	0.26244655

features.7.bias f4 [32]
0	0x3d62b356	0.05534681
1	0x3d3eb0d2	0.046555348
2	0x3df14adc	0.117818564
3	0x3e5d4441	0.21608068
4	0x3e5f5d53	0.21812944
5	0x3dee3c6e	0.1163262
6	0xbe218127	-0.15771924
7	0x3e19dab2	0.15024832
8	0x3e387f34	0.18017274
9	0xbe364720	-0.1780057
10	0xbe51c4bb	-0.20485203
11	0xbe05db6c	-0.13071984
12	0xbe56de90	-0.20983338
13	0x3da413f2	0.08011617
14	0xbd83a19f	-0.06427311
15	0xbd24058f	-0.040044364
16	0xbaf88bda	-0.0018962577
17	0xbd8fa9c1	-0.070148
18	0x3c2c8415	0.010529538
19	0x3e5e3d98	0.21703184
20	0x3e7d5b9f	0.24741982
21	0x3cc2b052	0.023765717
22	0x3dd4cd14	0.10390678
23	0xbdf1c751	-0.11805595
24	0x3d7a10b8	0.0610511
25	0x3e75e9a4	0.24014908
26	0x3e1fccfb	0.15605538
27	0xbd6bbdcf	-0.057554062
28	0x3d248d0a	0.040173568
29	0x3d2effa3	0.042724263
30	0xbd11f1d9	-0.035631035
31	0x3dc9e735	0.09858552

features.7.running_mean f4 [32]
0	0xbe4e4e6e	-0.20147106
1	0xbe980209	-0.29689053
2	0xbe75658c	-0.23964518
3	0xbe88a166	-0.26685637
4	0x3ebb8e96	0.36632222
5	0x3eef0997	0.46687004
6	0xbf4b42e6	-0.79398954
7	0x3ddef464	0.108864576
8	0xbea2d9bf	-0.31806752
9	0x3eff55e1	0.49870208
10	0xbe2639a9	-0.16232933
11	0xbf793fbc	-0.97362876
12	0xbe8ca151	-0.27466825
13	0xbef57adc	-0.47945297
14	0xbf90283d	-1.126228
15	0x3f0932d2	0.5359317
16	0x3e2f132a	0.17097154
17	0xbf915991	-1.1355458
18	0xbf590927	-0.8477959
19	0xbd287a93	-0.04113252
20	0xbdfa47b9	-0.12220711
21	0xbec26fe8	-0.37976003
22	0xbe8f88f6	-0.2803418
23	0xbf649212	-0.89285386
24	0xbe251f17	-0.16125141
25	0x3bc56d91	0.006025024
26	0xbe33f4f5	-0.17573912
27	0x3f31834c	0.6934097
28	0xbe7a0417	-0.24415623
29	0x3e60be0f	0.21947502
30	0xbe127dc1	-0.14305784
31	0xbf364622	-0.71200764

features.7.running_var f4 [32]
0	0x3d5c3421	0.05376065
1	0x3db1b2b3	0.08676662
2	0x3dcb1bd8	0.0991742
3	0x3daeca4c	0.08534679
4	0x3de3267e	0.11091326
5	0x3dd6b346	0.104834124
6	0x3e8738e4	0.26410592
7	0x3d212468	0.03934136
8	0x3d4ed374	0.050494626
9	0x3dc49c4c	0.09600124
10	0x3e80be12	0.25145012
11	0x3e0cd352	0.13752487
12	0x3e848082	0.25879294
13	0x3daef87c	0.085434884
14	0x3e3245ce	0.17409441
15	0x3e02f1c9	0.12787546
16	0x3ddaa0c9	0.106751986
17	0x3e1cd310	0.15314889
18	0x3df74b98	0.12074965
19	0x3e2d269f	0.16909264
20	0x3de121ea	0.10992797
21	0x3f04b094	0.51831937
22	0x3dda2bd7	0.10652893
23	0x3e087d1a	0.13328972
24	0x3d56fb31	0.05248565
25	0x3da18d96	0.078883335
26	0x3dc4d8da	0.09611674
27	0x3dcbeb2f	0.09956967
28	0x3e50466a	0.20339361
29	0x3e5bddc2	0.21471313
30	0x3d3064da	0.04306493
31	0x3d8b28da	0.06794901

features.10.weight f4 [48, 32, 5]
0	0xbd122842	-0.035682924
1	0xbc333312	-0.010937469
2	0xba5245a5	-0.0008021242
3	0xbd651b3a	-0.05593417
4	0xbd80d10f	-0.06289875
5	0xbc786eb9	-0.015163117
6	0xbb9fa7b2	-0.0048722858
7	0xbd766aac	-0.060160324
8	0x3cbd8cd2	0.023138437
9	0x3da5f11e	0.0810263
10	0x3d02910e	0.031876616
11	0x3d390682	0.045172222
12	0x3cfeb569	0.031092362
13	0x3d86ab37	0.065756254
14	0x3c7f5219	0.015583538
15	0xbd5f72de	-0.054552905
16	0xbd9cf3ae	-0.07663666
17	0x3cb0ba31	0.021573158
18	0xbda91dcb	-0.08257636
19	0x3d93d203	0.07217791
20	0x3c784490	0.015153065
21	0x3da916a1	0.08256269
22	0x3d885bf1	0.066581614
23	0x3ca6c018	0.02035527
24	0xbd4233a8	-0.047412544
25	0xbdcbbbc4	-0.09947923
26	0xbd870495	-0.06592671
27	0xbd909860	-0.07060313
28	0xbcbae52e	-0.02281436
29	0xbcf36376	-0.029710513
30	0x3d0b469c	0.034002885
31	0x3d18cfbe	0.037307493
32	0x3b1d5a1f	0.0024010015
33	0x3d9d9a69	0.07695467
34	0x3d252556	0.04031881
35	0xbbc85b2d	-0.0061143846
36	0x3bbecfbf	0.005823105
37	0xbd1901dd	-0.037355293
38	0x3b7677c9	0.0037608019
39	0xbcf2348a	-0.029566068
40	0x3cf1fcb0	0.029539436
41	0xbb7a3b86	-0.0038182451
42	0x3cf0ac29	0.029378967
43	0x3d1b12c4	0.037859693
44	0x3d16f6aa	0.03685633
45	0x3c71c03f	0.014755308
46	0x3d1a5c39	0.037685607
47	0xbcd72236	-0.02626143
48	0xbc8a3fa9	-0.016876059
49	0x3c83ca76	0.016087752
50	0xbca0d530	-0.019632906
51	0x3dd80c83	0.105492614
52	0x3cd3bb15	0.025846044
53	0x3cebb7c4	0.02877415
54	0x3de65624	0.11246899
55	0xbd700e8d	-0.058607627
56	0xbd2539ab	-0.0403382
57	0x393a301a	0.00017756262
58	0xbd82c481	-0.063851364
59	0xbcad7d84	-0.021178015
60	0x3e102857	0.14077888
61	0x3b8b88c5	0.0042582476
62	0x3d3da5ea	0.046300806
63	0x3d31ca08	0.043405563
64	0xbd198c9d	-0.037487615
65	0x3cfb1213	0.030648267
66	0xbda58e51	-0.08083785
67	0xbd395107	-0.04524329
68	0x3ce73a8d	0.028226161
69	0x3b53404d	0.0032234371
70	0x3d91d8b6	0.071214125
71	0x3cf85956	0.030316036
72	0x3d14d79c	0.036338434
73	0x3c1524d5	0.00910302
74	0x3d9c4c4b	0.07631739
75	0xbcdd604f	-0.027023463
76	0x3baa2ab3	0.0051930784
77	0xbd93b668	-0.072125256
78	0xbce39e9f	-0.027785597
79	0xbdc3e1bf	-0.09564542
80	0xbc99d9a0	-0.01878053
81	0x3cc0f1bd	0.02355277
82	0xbadbc8bb	-0.0016768196
83	0xbd35dd8d	-0.04440074
84	0xbd9bb810	-0.076034665
85	0x3ca05f3b	0.01957666
86	0x3c94297b	0.018086186
87	0x3dc08ae3	0.094014905
88	0x3d9bcd85	0.07607559
89	0x3d289d21	0.041165475
90	0x3d795251	0.06086952
91	0x3c1d8eda	0.009616578
92	0xbcc1d069	-0.023658948
93	0xbd065ac7	-0.032801416
94	0x3cd8a4f1	0.026445838
95	0xbd1ee30f	-0.03879076
96	0xbde7c2a8	-0.113164246
97	0xbc9578e9	-0.018246131
98	0xbe18647e	-0.14882085
99	0xbcbf5260	-0.02335471
100	0x3ca6052f	0.020266144
101	0x3cde4c68	0.027136043
102	0xbd8ed115	-0.06973473
103	0x3ce62393	0.028093135
104	0xbd951276	-0.07278912
105	0xbe2cef85	-0.16888244
106	0xbd466e86	-0.048445247
107	0xbe3538ba	-0.1769742
108	0x3a4e7bc7	0.00078767206
109	0xbe28b0f0	-0.16473746
110	0xbdc10db9	-0.094264455
111	0xbcc47e8d	-0.023986125
112	0xbc3088ec	-0.010774832
113	0xbdb3629c	-0.087590426
114	0x3d6bc91c	0.05756484
115	0xbbca6fe3	-0.0061778887
116	0x3bd24702	0.006417156
117	0xbd1da980	-0.038491726
118	0xbd7efaad	-0.06225078
119	0xbbcf92eb	-0.0063346527
120	0xbc3a706b	-0.011379342
121	0xbbc9c5b3	-0.006157601
122	0xbc958dbc	-0.01825606
123	0x3ca3087e	0.01990151
124	0x3d0608d2	0.032723255
125	0xbd0363be	-0.032077543
126	0xbd13ea4b	-0.03611211
127	0xbd5be643	-0.05368639
128	0x3d2078ba	0.039177634
129	0xbbe1665f	-0.0068786587
130	0x3d2acb4f	0.041697796
131	0x3de625a9	0.11237652
132	0x3d9f2018	0.07769793
133	0x3ceafbff	0.028684614
134	0xbc3fb29c	-0.011700299
135	0x3d1d9cf4	0.03847976
136	0xbcbc1b9c	-0.022962384
137	0x3d5963cd	0.053073693
138	0x3d5d4772	0.054023214
139	0x3db1039f	0.08643269
140	0x3c9b05f3	0.018923735
141	0x3d5bc6ab	0.05365626
142	0x3c754427	0.014969862
143	0xbc07bf13	-0.008285302
144	0x3c579105	0.013157134
145	0x3b05d5eb	0.0020421694
146	0x3b8b542d	0.004251978
147	0x3c2f0117	0.010681412
148	0x3ca42eea	0.020041902
149	0x3d6719d6	0.056421123
150	0x3d1a6458	0.03769335
151	0x3d4b5b22	0.049647458
152	0xbc67cf67	-0.01414857
153	0x3cffc7a2	0.031223122
154	0x3cb0c175	0.021576623
155	0xbcc7d22c	-0.02439221
156	0x3d3de158	0.046357483
157	0xbcb0df8c	-0.02159097
158	0x3d604016	0.054748617
159	0x3d0279a4	0.031854287
160	0xbc8004da	-0.015627313
161	0xbdc23662	-0.09483029
162	0xbd829692	-0.06376375
163	0x3cc7031a	0.024293471
164	0x3d5468cc	0.051857755
165	0x3da8e5a5	0.08246926
166	0x3cc8c4a1	0.024507822
167	0xbbcf35fe	-0.006323575
168	0x3d172765	0.036902804
169	0x3dadffa9	0.08496029
170	0xbd73cfe8	-0.059524447
171	0xbb12cb06	-0.0022398843
172	0x3c499762	0.012304159
173	0x3cf0bb09	0.02938606
174	0xbc6c4ca6	-0.014422571
175	0x3d6a5893	0.057213377
176	0xbd0f2f72	-0.034957357
177	0xbc93c2da	-0.018037248
178	0xbd753935	-0.05986901
179	0xbd6da06e	-0.058014326
180	0x3d227cae	0.039669685
181	0x3c55f973	0.013059962
182	0xbc66cc8c	-0.014086854
183	0xbd56e046	-0.052459978
184	0x3c188fe9	0.009311655
185	0x3dc6f0b2	0.09713878
186	0x3d2ab83f	0.041679617
187	0x3d93bf31	0.07214201
188	0x3dac46dc	0.08411953
189	0x3d9bf7bb	0.0761561
190	0x3d9a3fb4	0.07531682
191	0x3dab603e	0.08367966
192	0x3d1fe73e	0.03903889
193	0xbb97fe9e	-0.004638507
194	0xbd64f392	-0.05589635
195	0x3d5651c2	0.052324064
196	0x3d70341d	0.05864345
197	0x3d1594d2	0.03651888
198	0x3dc428d5	0.095781006
199	0x3d6af5cb	0.057363313
200	0x3c3962f7	0.011315099
201	0xbd97757a	-0.07395454
202	0xbd908d83	-0.07058241
203	0xbd77bebc	-0.060484633
204	0xbcb55ebb	-0.022139898
205	0x3c9c1dcd	0.019057179
206	0x3c94e1ad	0.018174017
207	0x3ccfcf61	0.02536744
208	0x39f4aea7	0.00046669433
209	0x3ccca7da	0.024982382
210	0xbcb52ee7	-0.022117091
211	0x3d39a130	0.045319736
212	0xbc841a34	-0.016125776
213	0x3cc564f0	0.024095982
214	0x3d67f434	0.056629375
215	0x3c20cc29	0.009814301
216	0x3c9223e3	0.017839378
217	0xbbeddfd1	-0.007259347
218	0x3c1aade0	0.009440869
219	0xba83c788	-0.0010053972
220	0x3d43d291	0.047808234
221	0xbc1f5902	-0.009725811
222	0xbcf375af	-0.029719202
223	0x3c6f0d09	0.01459051
224	0xbcac12a0	-0.021004975
225	0x3956e619	0.00020494348
226	0x3abc1b09	0.0014351319
227	0x3cf4de50	0.029891163
228	0x3d9c75fc	0.07639691
229	0x3d28ba16	0.04119309
230	0x3c9fea64	0.019520946
231	0xbc1bce75	-0.009509672
232	0x3b22edb4	0.002486092
233	0xbb4b7c3a	-0.0031049387
234	0xbd4cca04	-0.049997345
235	0xbcd22acf	-0.025655178
236	0xbc8bbfb2	-0.01705918
237	0x3adfeb5c	0.0017083692
238	0x3e15bfc5	0.14623936
239	0x3d5c6a07	0.053812053
240	0x3d39103f	0.04518151
241	0xbcf1cfbf	-0.029518006
242	0xbc9d73d2	-0.019220266
243	0xbdaadb20	-0.08342576
244	0x3bb0c9cb	0.0053951493
245	0xbcc39c43	-0.023878222
246	0xbd35f595	-0.04442366
247	0xbcda25f0	-0.026629418
248	0xbdaf4483	-0.085579894
249	0xbdeadb5e	-0.11467622
250	0xbba32565	-0.004978823
251	0x3cda0714	0.026614703
252	0x3d0ebb53	0.034846615
253	0x3d81d5bb	0.06339594
254	0x3cccc4ac	0.024996124
255	0xbdbbeb2e	-0.09175716

features.10.bias f4 [48]
0	0xb8c07be1	-9.178348e-05
1	0xba4528a9	-0.00075210124
2	0x3a69fc60	0.00089258514
3	0x3a018d89	0.000494205
4	0xb9649ae7	-0.0002180148
5	0xb8adef5e	-8.2938684e-05
6	0x3a08ac8e	0.0005213701
7	0x3a2120c0	0.0006146543
8	0xba9545b6	-0.0011388573
9	0x38836c5f	6.2667525e-05
10	0x39d16b2e	0.00039943442
11	0xba6d6d67	-0.0009057135
12	0xba115d75	-0.0005545237
13	0xba54b1aa	-0.0008113632
14	0x3aa37964	0.001247209
15	0xb868f7a3	-5.554374e-05
16	0xba8ead8a	-0.0010885459
17	0x389cd0dd	7.4775635e-05
18	0xba898b93	-0.0010493867
19	0xba3daada	-0.00072352367
20	0xbaa2de3e	-0.0012425852
21	0x3992fc46	0.00028035248
22	0xba256937	-0.0006309929
23	0x39ffab6e	0.00048765115
24	0xba19295f	-0.00058426516
25	0xb98f6eb5	-0.0002735757
26	0x3a21cb25	0.00061719335
27	0xb9d3474e	-0.00040298182
28	0xba814a22	-0.0009864012
29	0xba144257	-0.00056556374
30	0xba1697df	-0.00057446765
31	0x38b75337	8.74162e-05
32	0x3a454ab4	0.0007526085
33	0x3aa26804	0.0012390618
34	0xba82a45b	-0.0009967195
35	0x3913aba4	0.00014082954
36	0xb912502b	-0.0001395351
37	0x3a8ecef1	0.0010895414
38	0x3a26e78c	0.00063669006
39	0xba06fac0	-0.0005149059
40	0xba84bb54	-0.0010126629
41	0x3a8a0ccc	0.0010532378
42	0xb8c1125d	-9.2063776e-05
43	0x390de44d	0.00013531857
44	0xba4e9e15	-0.00078818324
45	0x3a98c09d	0.0011654083
46	0x3a8878cb	0.0010411976
47	0xba3b51f8	-0.0007145698

features.11.weight f4 [48, 48, 1]
0	0xbd84fa9e	-0.06493114
1	0x3d86830f	0.06567966
2	0xbe166aaf	-0.14689134
3	0x3e0293ab	0.12751643
4	0xbca8b707	-0.020595087
5	0xbd8d098b	-0.06886586
6	0xbd764148	-0.06012085
7	0xbdaa45f4	-0.08314124
8	0xbb3d5b7b	-0.0028893638
9	0x3dbd539e	0.09244464
10	0xbe1b124f	-0.15143703
11	0x3d43f483	0.047840606
12	0xbe2798ed	-0.1636693
13	0xbbb887c1	-0.0056314175
14	0x3e005793	0.12533407
15	0xbd675583	-0.056478035
16	0x3da8da69	0.082447834
17	0xbd902725	-0.07038716
18	0xbd3cc171	-0.046082918
19	0xbe710bf9	-0.23539723
20	0x3d175792	0.036948748
21	0x3cded965	0.027203271
22	0xbe4a4475	-0.19752677
23	0xbdd0891b	-0.10182401
24	0xbddd6940	-0.108110905
25	0x3d75e9a2	0.060037263
26	0xbc31adab	-0.010844628
27	0xbd885d56	-0.066584274
28	0xbd31d4b4	-0.04341574
29	0x3d9ae678	0.0756349
30	0xbd82361f	-0.06357979
31	0xbd5b4206	-0.05352976
32	0xbdf1dc7c	-0.11809632
33	0xbd70d57e	-0.058797352
34	0x3d1223be	0.035678618
35	0x3cfafd27	0.03063829
36	0xbe014554	-0.12624103
37	0xbda50644	-0.08057836
38	0xbe09ff1a	-0.1347622
39	0x3cf5532b	0.029946884
40	0xbda0f0f9	-0.07858462
41	0x3d0af5b9	0.033925746
42	0x3be30a2b	0.0069287024
43	0xbdc7c8e8	-0.09755117
44	0x3c63b1b4	0.013897348
45	0x3d6a4b16	0.057200514
46	0x3d08d359	0.03340468
47	0xbda7cd8c	-0.08193502
48	0xbd94a881	-0.07258702
49	0x3d9121b7	0.07086509
50	0x3da388df	0.079850905
51	0x3d79fecc	0.06103401
52	0x3dc16758	0.094435394
53	0x3e22354a	0.1584064
54	0xbdd918a0	-0.106004
55	0xbd923d6b	-0.07140621
56	0xbe0413e0	-0.12898207
57	0x3d75ece2	0.060040362
58	0x3d8f0f6f	0.069853656
59	0xbdfc5f1d	-0.12322829
60	0x3ccb4e7f	0.024817703
61	0xbcc33c89	-0.023832576
62	0x3d0bb95b	0.034112316
63	0x3dca8730	0.09889066
64	0x3dbafb98	0.09130019
65	0xbd044249	-0.032289777
66	0x3d8fbbec	0.07018265
67	0xbcc63b98	-0.024198338
68	0xbdf8cca6	-0.121484086
69	0x3da3283c	0.079666585
70	0x3cb9eaa0	0.022694886
71	0x3de750a6	0.11294679
72	0x3d49bf39	0.04925463
73	0x3e0a48bb	0.13504307
74	0xbdb52740	-0.08845377
75	0x3d8ec92b	0.069719635
76	0xbe07b27a	-0.13251677
77	0xbe381cee	-0.17979786
78	0x3d10d219	0.035356615
79	0xbdc99eae	-0.09844719
80	0x3dcc99eb	0.09990295
81	0xbddaa1e4	-0.106754094
82	0x3da574ea	0.0807894
83	0x3d8b8d30	0.06814039
84	0xbd8be1f5	-0.06830207
85	0x3ca2162f	0.019785969
86	0x3d5fdac9	0.05465201
87	0x3cb1710e	0.021660354
88	0xbe1ddc13	-0.15415983
89	0x3b265d69	0.0025385267
90	0x3b07fcc9	0.0020750037
91	0x3cecd1c1	0.028908612
92	0xbdf6dce0	-0.12053847
93	0x3e1afe89	0.1513616
94	0x3dcb367c	0.099225014
95	0xbe199781	-0.149992
96	0x3a6a1b11	0.0008930425
97	0xb9912d92	-0.00027690508
98	0xba229383	-0.00062017905
99	0x3ade3084	0.0016951715
100	0x39056219	0.00012720413
101	0xba177a07	-0.00057783764
102	0xbb17116b	-0.0023051153
103	0x39294e1b	0.00016146193
104	0xbb131a7b	-0.0022446204
105	0x3aae0381	0.0013276191
106	0xba73f717	-0.00093065336
107	0xb88e7668	-6.7931425e-05
108	0xbb0222e2	-0.0019857218
109	0x3ad77293	0.0016437344
110	0x3acb777f	0.0015523284
111	0xbb156861	-0.002279781
112	0x39be9fac	0.0003635859
113	0x3b04dcfe	0.0020273323
114	0xbb12ec7f	-0.0022418795
115	0x3ab67b66	0.0013922274
116	0x3a7f6737	0.0009742858
117	0xba83f798	-0.0010068296
118	0x3ae09376	0.001713379
119	0xbb08ce89	-0.0020875058
120	0x39b87ea9	0.00035189584
121	0x3abb00c3	0.0014267195
122	0xbb01b09b	-0.0019789103
123	0x3a3178dc	0.00067700236
124	0xb9f21d87	-0.00046179836
125	0xba248e65	-0.0006277322
126	0xb612d63e	-2.18804e-06
127	0xba1bc0c6	-0.0005941506
128	0x3a62829f	0.000864068
129	0x3aa0b37c	0.0012260522
130	0x3afe3661	0.0019394868
131	0x3ae8c6c4	0.0017759432
132	0xbab7ec82	-0.0014032277
133	0x3b116bab	0.002218942
134	0xbb0da5f7	-0.0021613815
135	0x39d77da4	0.00041101605
136	0x3ae3438a	0.0017338854
137	0xbab6f678	-0.0013958951
138	0x3a2f697f	0.00066914404
139	0x39dd9762	0.00042265194
140	0x3ac5914b	0.0015073208
141	0xbab90280	-0.0014115125
142	0x3b038560	0.0020068511
143	0xbb0f829c	-0.0021897918
144	0xbd88f16a	-0.06686671
145	0xbda4a69f	-0.08039593
146	0x3c308d1b	0.01077583
147	0x3de1b895	0.11021534
148	0x3d876f4b	0.06613024
149	0xbcff0f76	-0.031135302
150	0x3db1da76	0.08684246
151	0xbd0d257a	-0.03445957
152	0x3c29ac4d	0.010356021
153	0xbd10fb0a	-0.03539566
154	0x3d5b0b94	0.05347784
155	0xbe22882e	-0.15872261
156	0x3da381c4	0.07983735
157	0x3ddcfac0	0.10790014
158	0xbe1b1d42	-0.1514788
159	0xbc541680	-0.012944818
160	0x3e06e0b3	0.13171653
161	0x3dac68cf	0.08418428
162	0xbe2a7c5b	-0.16649
163	0xbe38c999	-0.18045653
164	0x3c16f53e	0.009213744
165	0x3d9c9d84	0.07647231
166	0x3e1b9501	0.15193559
167	0x3cc660be	0.024216052
168	0xbcfcc39f	-0.030854998
169	0x3d21cad4	0.039500073
170	0x3d8f757b	0.070048295
171	0x3ddf2a7b	0.108967744
172	0xbcbadb4a	-0.022809643
173	0x3d7b86e4	0.06140794
174	0x3c669767	0.014074183
175	0xbd9ee649	-0.07758767
176	0x3b2c844d	0.0026323975
177	0x3dcba43e	0.09943436
178	0xb8826985	-6.2185376e-05
179	0xbd001163	-0.03126658
180	0xbd322bbc	-0.04349874
181	0x3de421a5	0.1113923
182	0xbd53de05	-0.051725406
183	0xbd7ee029	-0.062225495
184	0xbc8c708b	-0.017143508
185	0x3e20d3af	0.15705751
186	0xbcafa6ab	-0.021441778
187	0x3bafcc87	0.0053649577
188	0xbd3c2611	-0.04593474
189	0xbba35dbd	-0.0049855397
190	0x3de591b4	0.11209431
191	0x3c18936b	0.009312491
192	0x3d92ecca	0.0717407
193	0x3db06067	0.08612137
194	0x3cddc4db	0.027071407
195	0x3e4bd74b	0.19906346
196	0xbd628b94	-0.055308893
197	0x3e191326	0.14948711
198	0x3c252e6a	0.010081867
199	0x3e553781	0.20821954
200	0xbd458a1b	-0.04822741
201	0x3a167ce9	0.0005740659
202	0x3d62cb7c	0.05536984
203	0x3e040c76	0.12895378
204	0xbe560ddb	-0.20903723
205	0x3e0db68c	0.13839167
206	0xbc25284f	-0.010080411
207	0xbe20e813	-0.1571353
208	0xbcd2f48b	-0.025751373
209	0xbce4d795	-0.027934829
210	0x3d56056f	0.052251276
211	0xbc4604ea	-0.012086133
212	0xbe3a8a82	-0.18216899
213	0xbdaf83a1	-0.08570028
214	0x3d6b1ca8	0.057400376
215	0x3dbcd952	0.09221138
216	0x3d95acf0	0.07308376
217	0xbd536b5d	-0.05161606
218	0xbbc9c813	-0.006157884
219	0xbd2786da	-0.04090009
220	0xbe4c51f0	-0.19953132
221	0xbe6b3a2d	-0.22971411
222	0x3cbcecc9	0.023062127
223	0x3d978996	0.07399289
224	0x3c6ffd0b	0.0146477325
225	0x3e648e68	0.22319949
226	0xbdd67bc6	-0.10472827
227	0x3e1585f9	0.14601888
228	0x3bcbd9fb	0.0062210537
229	0xbd4c39a5	-0.04985966
230	0xbd7ea861	-0.062172297
231	0x3c31a364	0.010842178
232	0x3e3e35b2	0.1857517
233	0xbd0ad343	-0.03389288
234	0x3de1281c	0.109939784
235	0x3d91b17d	0.07113931
236	0xbd7ac4c2	-0.0612228
237	0x3d5de302	0.05417157
238	0xbde26eb6	-0.11056273
239	0x3d53c1e8	0.051698595
240	0xbae40407	-0.001739622
241	0xba8df612	-0.0010830781
242	0x39b07188	0.00033653923
243	0xba114616	-0.00055417547
244	0xba855ad7	-0.0010174167
245	0x3a278a9e	0.00063912
246	0x3a324ae6	0.0006801322
247	0x3ace13e8	0.0015722485
248	0x3abe5266	0.0014520406
249	0x3acf570c	0.0015818789
250	0x3ae8b8bd	0.0017755252
251	0x3a8dd4c8	0.001082086
252	0x3ae6d125	0.0017609937
253	0x3a9bb4d1	0.0011879449
254	0xbac3e0a1	-0.0014944264
255	0x3a8a8e58	0.0010570986

features.11.bias f4 [48]
0	0x3aa107f8	0.00122857
1	0x3ada9e0d	0.0016679183
2	0x3a46ab95	0.00075786683
3	0xba4ffc84	-0.0007934051
4	0x39123857	0.00013944633
5	0xb904ffc1	-0.00012683777
6	0x3ace2b35	0.001572943
7	0xbace37a3	-0.0015733134
8	0x3b0369e5	0.0020052132
9	0x3af322f0	0.0018549841
10	0xb9b70887	-0.00034910833
11	0xba032fae	-0.0005004358
12	0xbb134934	-0.0022474052
13	0x3a447322	0.0007493963
14	0xb9ac24c6	-0.00032833795
15	0x3ae44a89	0.0017417233
16	0xba95ed9b	-0.001143861
17	0x3aa77647	0.0012776338
18	0xbb11612f	-0.002218317
19	0xba52168c	-0.0008014224
20	0xba90e86f	-0.0011055599
21	0xb99da4b6	-0.00030068093
22	0xbb105bb6	-0.002202732
23	0xbae5a149	-0.001751938
24	0xba87efc3	-0.0010371137
25	0x3adf1bcf	0.0017021837
26	0xb8d9b05e	-0.00010380217
27	0xba4f402b	-0.0007905985
28	0xbac89568	-0.0015303316
29	0xbaceddd9	-0.0015782668
30	0xbac1d203	-0.001478732
31	0x3ab6c756	0.0013944905
32	0xba9d7b4a	-0.0012014892
33	0xb8792434	-5.9399943e-05
34	0x3a879d39	0.0010346539
35	0x3a2a7386	0.00065021997
36	0x3b040d5b	0.0020149562
37	0x388f7000	6.839633e-05
38	0x3ab400c0	0.0013733134
39	0x3a8e39b0	0.0010850932
40	0xbad772a1	-0.001643736
41	0x3aac2d48	0.0013136053
42	0xba66642f	-0.0008788732
43	0xbac6bf60	-0.0015163235
44	0x39ea4288	0.00044681528
45	0x3a52860b	0.0008030838
46	0x388df5bb	6.769175e-05
47	0xb983cb11	-0.00025137563

features.12.weight f4 [48]
0	0x3e5a8f1f	0.21343659
1	0x3e2a7fc3	0.166503
2	0x38702825	5.7257846e-05
3	0x3ed12929	0.40851715
4	0x3f082fd3	0.53197974
5	0x379f52f2	1.8992901e-05
6	0x3f2a7725	0.6658805
7	0x3e669899	0.22519149
8	0x3e76474f	0.2405064
9	0x3eed0827	0.46295282
10	0x3ec79af2	0.389854
11	0x3f080879	0.5313793
12	0x3e4858a1	0.19565059
13	0x3e906baa	0.2820714
14	0x3eb72f96	0.35778493
15	0x3f079fe6	0.5297836
16	0x3f06c8e3	0.5265028
17	0x3e6cc746	0.23122892
18	0x3e1fe2ba	0.15613833
19	0x3e35b752	0.17745712
20	0x3e3293eb	0.17439239
21	0x3e8e9f47	0.27855894
22	0x3ec1cac7	0.3785002
23	0x3ea63640	0.32463264
24	0x3e497b69	0.19675983
25	0x3e39e466	0.18153533
26	0x3eaaf063	0.33386526
27	0x3e9037d2	0.28167588
28	0x3eb314de	0.34976858
29	0x3ed90dc7	0.42393324
30	0x3e799171	0.24371888
31	0x3f142d15	0.5788129
32	0x3e33d647	0.17562209
33	0x3e3ba7d9	0.18325748
34	0x3e9298f9	0.28632334
35	0x3ed79571	0.42106202
36	0x3eb71bf6	0.3576352
37	0x3e9a7a4e	0.30171436
38	0x3eb99656	0.3624751
39	0x3e36b8bb	0.17843907
40	0x3e4c48a6	0.19949588
41	0x3ed2d339	0.41176775
42	0x3e8b7db7	0.2724435
43	0x3e3dc5a5	0.18532427
44	0x3e331bbb	0.17491047
45	0x3e4bdccb	0.19908445
46	0x3ec4c8dd	0.38434497
47	0x3f02b584	0.5105822

features.12.bias f4 [48]
0	0x3d069d74	0.032865003
1	0x3dfdaa08	0.123859465
2	0xb9fdea86	-0.00048430654
3	0xbe83fee3	-0.257804
4	0xbecb143c	-0.39663875
5	0xb99a1957	-0.0002939205
6	0xbefd9e85	-0.49535003
7	0x3cdec21e	0.027192172
8	0xbd582107	-0.052765872
9	0xbe533883	-0.20627026
10	0xbe6abbca	-0.22923198
11	0xbece8da2	-0.40342432
12	0xbd7a519a	-0.061112978
13	0xbdc3c356	-0.09558742
14	0xbe2a8193	-0.16650991
15	0xbe4a5507	-0.19758998
16	0xbe5a3f25	-0.2131315
17	0x3d4aaa40	0.04947877
18	0xbcc14952	-0.023594532
19	0x3ebb95ee	0.36637825
20	0x3d76e181	0.06027365
21	0xbe08715e	-0.13324496
22	0xbe1cbb5c	-0.15305847
23	0xbe1683eb	-0.1469876
24	0x3dc43b07	0.09581571
25	0x3e33b3b8	0.17549026
26	0xbc28ea97	-0.010309837
27	0xbc46bde6	-0.012130236
28	0xbdaea66c	-0.08527836
29	0xbda5da06	-0.08098225
30	0x3df8df33	0.12151947
31	0xbec20de0	-0.3790121
32	0xbd64edec	-0.055890962
33	0x3dc7bac5	0.0975242
34	0xbdec23ac	-0.11530241
35	0xbca9b0ca	-0.020714182
36	0xbe60d992	-0.21957996
37	0xbe377d4f	-0.17918895
38	0xbf08e27d	-0.53470594
39	0x3cb353a7	0.021890474
40	0xbd3bb987	-0.04583123
41	0xbda91c28	-0.082573235
42	0x3ce11d62	0.027479831
43	0x3d08d39e	0.03340494
44	0x3e0ddb27	0.13853131
45	0xbd79eb68	-0.061015517
46	0xbe25c26f	-0.16187452
47	0xbeefc7ab	-0.46832022

features.12.running_mean f4 [48]
0	0xbf1ac5e8	-0.6045823
1	0x3e1111c8	0.1416694
2	0xbb0ba6fe	-0.0021309252
3	0xbe964a11	-0.29353383
4	0x3d8ec1b0	0.06970537
5	0xb997f521	-0.000289836
6	0xbf1e7814	-0.61901975
7	0x3da286cc	0.07935867
8	0x3cc3e003	0.023910528
9	0xbd916ff2	-0.0710143
10	0xbee01e09	-0.43772915
11	0x3d9391af	0.07205521
12	0xbd7eb268	-0.06218186
13	0xbcbfb487	-0.023401512
14	0x3d828a29	0.06374008
15	0xbf13de48	-0.5776105
16	0xbe9764c8	-0.29569077
17	0xbd30a4c0	-0.043125868
18	0xbdac2c85	-0.08406929
19	0xbf454f7c	-0.7707441
20	0xbe5e3089	-0.21698202
21	0xbe348f3d	-0.17632766
22	0xbdcc29bf	-0.099689
23	0xbef8ef01	-0.48619846
24	0x3e941974	0.2892567
25	0x3b444833	0.002995026
26	0xbeb88726	-0.3604061
27	0xbeca8e66	-0.39561766
28	0xbeddbec7	-0.43309614
29	0x3e079847	0.13241683
30	0xbd92663c	-0.07148406
31	0xbecff8ec	-0.406196
32	0x3d80dfbb	0.06292673
33	0x3e940fca	0.28918296
34	0xbed2d013	-0.41174373
35	0xbeabbb55	-0.3354136
36	0x3e85c270	0.26124907
37	0xbdb70f7c	-0.089385
38	0xbe42cb62	-0.19022897
39	0x3df606da	0.120130256
40	0x3c714662	0.014726253
41	0xbf084b11	-0.5323954
42	0xbe292103	-0.16516499
43	0x3e0fe392	0.14051655
44	0x3dd95744	0.10612348
45	0x3ce54301	0.027986052
46	0xbec977f4	-0.3934933
47	0x3d10fe34	0.035398677
